checkpoint_prioritized_replay.pth (torch_old, 28481 bytes, 6 tensors)

fc1.weight f4 [64, 37]
0	0xbca54bf6	-0.020177823
1	0x3df7dc7a	0.121025994
2	0xbe33d103	-0.175602
3	0xbf2b4800	-0.6690674
4	0xbe350966	-0.17679366
5	0xbc3f9a31	-0.011694477
6	0xbf197aba	-0.5995289
7	0x3ec26e9b	0.3797501
8	0xbe88f826	-0.26751822
9	0xbf1ac992	-0.6046382
10	0xbdec8a3b	-0.11549803
11	0xbdbe99b7	-0.093066625
12	0xbd239b87	-0.039943244
13	0xbea36560	-0.3191328
14	0xbee36fc1	-0.444212
15	0xbe4d830d	-0.20069523
16	0x3b7ea3f0	0.0038855039
17	0x3e7451fc	0.238594
18	0xbe899546	-0.268717
19	0xbe5ff1e8	-0.21869624
20	0xbe8eb38c	-0.27871358
21	0x3e7bcad6	0.24589095
22	0xbcad66af	-0.021167127
23	0x3e856476	0.26053208
24	0xbe4ccbe8	-0.19999659
25	0xbd7f96c0	-0.062399626
26	0x3d882352	0.06647362
27	0xbc516273	-0.01277982
28	0xbe6d92f6	-0.23200592
29	0xbcde1770	-0.027110785
30	0xbcf4f317	-0.02990107
31	0xbe509793	-0.20370321
32	0xbc0a85f3	-0.008454788
33	0xbee7bc71	-0.45260957
34	0xbf23d84c	-0.6400192
35	0xbe6c9066	-0.23101959
36	0x3c3b5491	0.011433736
37	0x3f0bc5be	0.54598606
38	0xbec9f928	-0.39447904
39	0xbe38dfe8	-0.18054163
40	0xbe6dfd54	-0.23241168
41	0xbff0fbd8	-1.8826857
42	0xbdbb8a6b	-0.091572605
43	0xbe002415	-0.12513764
44	0xbd78309c	-0.060593233
45	0x3d934537	0.07190936
46	0x3e4da8c1	0.20083906
47	0x3c444884	0.01198018
48	0x3c4a3cdf	0.012343614
49	0x3d736b71	0.059428636
50	0x3cce0c5a	0.025152374
51	0xbc4145e4	-0.011796448
52	0xbcaefbca	-0.021360297
53	0x3e0c57b7	0.13705336
54	0x3d81e520	0.0634253
55	0x3e263cdb	0.16234152
56	0x3def83f7	0.11695092
57	0xbe2f317d	-0.17108722
58	0xbdd12b4b	-0.102133356
59	0xbd969322	-0.07352282
60	0xbd083d6c	-0.0332617
61	0x3d938d37	0.07204669
62	0xbb796e27	-0.003806004
63	0xbce801e4	-0.028321214
64	0xbd337ad4	-0.04381831
65	0x3db0b6fc	0.086286515
66	0xbc832297	-0.016007705
67	0x3d0340d6	0.032044254
68	0x3e3824b6	0.17982754
69	0x3daab4ad	0.083352424
70	0x3d7fa41f	0.062412377
71	0xbe0dba74	-0.13840657
72	0x3c5f6125	0.013634001
73	0x3c24f23d	0.01006752
74	0x3eb5489f	0.35406968
75	0xbe8073fa	-0.25088483
76	0x3e68ff6b	0.22753684
77	0xbe8cc865	-0.2749664
78	0xbeaa5c93	-0.33273754
79	0xbecbdfff	-0.39819333
80	0xbe46b7e7	-0.1940609
81	0x3eb969e0	0.3621359
82	0xbd5461e7	-0.05185118
83	0xbd8406c3	-0.06446602
84	0xba79b77f	-0.0009525939
85	0xbee4ccd5	-0.44687524
86	0x3e741076	0.23834404
87	0xbeafcddb	-0.34336743
88	0xbf05da73	-0.5228645
89	0x3dcf1dca	0.10113104
90	0xbda2ef11	-0.079557545
91	0xbdd6654f	-0.10468542
92	0xbcfbc561	-0.030733766
93	0xbe634a18	-0.22196233
94	0x3e2ea3c8	0.17054665
95	0xbf1da03a	-0.6157261
96	0x3dea446f	0.11438834
97	0xbe02509f	-0.12726067
98	0xbecbd989	-0.39814404
99	0x3df82559	0.121164985
100	0x3e9dce4a	0.3082145
101	0xbf44f39f	-0.76934236
102	0xbe4b8cb2	-0.1987789
103	0xbeaf766e	-0.34270042
104	0x3dc924cf	0.09821474
105	0xbd3e12b8	-0.04640457
106	0xbe46fdde	-0.1943278
107	0xbe165dc4	-0.14684206
108	0x3dce45c9	0.10071904
109	0xbae1e239	-0.0017233557
110	0xbd02d322	-0.031939633
111	0x3e051a09	0.12998213
112	0xbe47c05f	-0.19506977
113	0xbe3326c3	-0.17495255
114	0x3e421f9c	0.1895737
115	0xbead319d	-0.33826914
116	0x3d4582fb	0.048220616
117	0xbe5bb2ae	-0.2145488
118	0xbe4b8c16	-0.19877657
119	0xbdd858c4	-0.10563806
120	0xbd8eff8b	-0.06982335
121	0x3b145997	0.0022636408
122	0xbd208816	-0.03919228
123	0xbdf4e5bb	-0.1195788
124	0xbe86fa9a	-0.2636307
125	0xbd36edb3	-0.04466028
126	0xbd3fc518	-0.046818823
127	0x3dc45f14	0.09588447
128	0xbef60552	-0.48050934
129	0xbd9076cb	-0.07053908
130	0xbd792ccf	-0.06083375
131	0xbd0f23aa	-0.03494612
132	0x3e100d26	0.14067516
133	0xbe6cd396	-0.23127589
134	0xbdd980ab	-0.106202446
135	0x3dedf78e	0.11619483
136	0xbcd31f2f	-0.025771705
137	0x3d3fdf35	0.046843726
138	0x3d265c46	0.040615343
139	0x3d79bd16	0.060971342
140	0x3ebbb4e0	0.36661434
141	0x3e4450a8	0.19171393
142	0xbcd37b26	-0.025815558
143	0xbed87064	-0.42273247
144	0xbe85fa95	-0.2616774
145	0xbe4aa79c	-0.197905
146	0x3e0a1659	0.13485087
147	0xbbdde332	-0.0067714686
148	0x3d7c2760	0.06156099
149	0xbeaea386	-0.34109133
150	0xbe0178da	-0.12643757
151	0xbe8781e6	-0.26466292
152	0xbe1c89eb	-0.15286987
153	0x3d1998e5	0.037499327
154	0xbdc5b356	-0.09653346
155	0xbd0e38a8	-0.034722
156	0xbe4d80fb	-0.20068733
157	0x3e6cab6b	0.23112266
158	0xbe4fc5d7	-0.20290314
159	0x3d35363d	0.04424118
160	0x3c98255b	0.0185725
161	0xbe86ebf2	-0.26351887
162	0x3da4f407	0.08054357
163	0xbe738794	-0.23782188
164	0x3d863096	0.06552236
165	0xbdbdbd3a	-0.09264608
166	0xbe4ca011	-0.19982935
167	0x3e127f3e	0.14306352
168	0xbe7c893c	-0.24661726
169	0x3d02b4a7	0.031910565
170	0x3d12c0e5	0.03582849
171	0x3ddbe8cb	0.10737761
172	0x3d27226d	0.040804315
173	0x3cfbd23e	0.0307399
174	0xbe35f607	-0.17769633
175	0xbde8d7ed	-0.113693096
176	0x3e2b8eea	0.16753736
177	0x3e0800b6	0.13281521
178	0x3da58c8f	0.0808345
179	0xbe522fba	-0.20526019
180	0x3d9fcf4c	0.078032106
181	0xbe0c8b7b	-0.13725083
182	0x3ecc1d57	0.39866135
183	0x3c657b28	0.0140064135
184	0x3c6cb9f5	0.0144486325
185	0x3d3a033c	0.04541324
186	0x3cd9924c	0.026559018
187	0x3d4a89d7	0.04944786
188	0x3d94df57	0.07269161
189	0x3db8d7eb	0.09025558
190	0x3f0187b4	0.5059769
191	0xbf01b338	-0.5066409
192	0xbf3aa87c	-0.72913337
193	0xbf31d3de	-0.6946391
194	0xc00dd13b	-2.2158954
195	0x3c79929b	0.015232707
196	0x3cdd3f02	0.027007584
197	0x3d598536	0.053105555
198	0xbc7f75ea	-0.015592078
199	0xbd40412c	-0.046937153
200	0x3caa5a2f	0.020794956
201	0x3e0b6687	0.1361333
202	0x3d961312	0.07327856
203	0x3d26de73	0.040739488
204	0xbb9a7ea5	-0.0047148042
205	0x3dcd613d	0.10028312
206	0x3e00e2fa	0.12586585
207	0x3e3ae89a	0.18252793
208	0x3e23f1bf	0.16010188
209	0x3d4d5ba9	0.050136242
210	0xbb3ce75e	-0.002882443
211	0x3d410c09	0.04713062
212	0x3e2689c8	0.16263497
213	0x3e282afc	0.16422647
214	0x3c7040c2	0.014663877
215	0x3d053ef9	0.03253076
216	0xbd7132a6	-0.058886193
217	0x3ddda41c	0.10822317
218	0x3d7e358b	0.06206278
219	0x3d2e68e5	0.042580504
220	0xbd0d8b93	-0.034556936
221	0xba7a6036	-0.000955108
222	0x3e80aa9e	0.2513017
223	0xbe122b20	-0.14274263
224	0xbe5e8928	-0.21732008
225	0xbe672325	-0.22572
226	0xbf880ea8	-1.0629473
227	0xbe3f10d2	-0.1865876
228	0x3dd60b7e	0.10451411
229	0xbe0a8ee0	-0.13531065
230	0xbcb17d98	-0.021666333
231	0x3d9a6c9a	0.07540245
232	0xbd9a368b	-0.075299345
233	0x3e20aeac	0.15691632
234	0x3bba7ee4	0.005691396
235	0xbd86857b	-0.06568428
236	0x3e4c7251	0.19965483
237	0xbd177722	-0.03697885
238	0x3db14352	0.086554185
239	0x3cd9901a	0.02655797
240	0xbd821118	-0.063509166
241	0xbe1f6647	-0.1556636
242	0x3bbe31fa	0.0058042975
243	0x3c34191f	0.010992317
244	0x3e116364	0.14198071
245	0xbf286956	-0.6578573
246	0x3e135f00	0.14391708
247	0xbe8f510b	-0.27991518
248	0x3c1ed059	0.009693229
249	0xbc637441	-0.013882698
250	0x3d9673b1	0.07346285
251	0x3e7592f6	0.23981842
252	0xbd8df796	-0.06931989
253	0xbc48244c	-0.012215685
254	0x3d487e1a	0.048948385
255	0xbd547f47	-0.051879194

fc1.bias f4 [64]
0	0x3dff695c	0.124712676
1	0xbd04b4f1	-0.03239912
2	0xbd596f4b	-0.053084653
3	0xbe2d4e4a	-0.16924396
4	0x3d8cb02d	0.0686954
5	0x3d8eea5a	0.06978293
6	0xbde9ccc0	-0.11416006
7	0x3d2cd0c7	0.042191293
8	0x3d13aedb	0.036055427
9	0xbe5d2ab0	-0.21598315
10	0x3e9a83ea	0.30178767
11	0x3daacc88	0.083397925
12	0x3da02922	0.078203455
13	0x3da407d3	0.08009305
14	0xbe288a72	-0.16459063
15	0xbd9a4190	-0.07532036
16	0x3b56d5fb	0.003278135
17	0xbcfef2b1	-0.031121584
18	0xbd0de6f4	-0.034644082
19	0xbe487255	-0.19574864
20	0xbe0558f3	-0.13022213
21	0x3dacc964	0.0843685
22	0xbdd1be13	-0.10241332
23	0xbd1d2aba	-0.038370825
24	0xbdde4bb6	-0.108542845
25	0xbb5a4099	-0.0033302663
26	0xbd75c77f	-0.060004707
27	0xbdff5afc	-0.12468526
28	0x3de0a96d	0.109698154
29	0x3e514e48	0.20440018
30	0xbd200c24	-0.03907408
31	0xbddc8e43	-0.10769322
32	0x3e5f24a8	0.21791327
33	0x3cf5de25	0.030013153
34	0xbe1dcd7f	-0.15410422
35	0x3d85a601	0.06525803
36	0xbd6de9e6	-0.05808439
37	0xbd1a4dda	-0.0376719
38	0xbe1042b1	-0.14087941
39	0xbe26c4c8	-0.16286004
40	0xbd73dfeb	-0.059539717
41	0xbd1d0bcb	-0.038341325
42	0xbcaa89be	-0.020817634
43	0x3ec6640f	0.38748214
44	0xbd0508e2	-0.032479174
45	0x3c896796	0.016773026
46	0xbd4d38a3	-0.05010284
47	0xbe31733b	-0.17329113
48	0xbe21a576	-0.15785775
49	0xbd2ea741	-0.042639975
50	0xbe157280	-0.1459446
51	0x3d162cc4	0.036663786
52	0xbd64aae0	-0.05582702
53	0xbdc5a110	-0.09649861
54	0xbcb7fd64	-0.022459693
55	0x3c2a5c82	0.010398032
56	0x3d67cad0	0.0565899
57	0x3d14c9e1	0.03632534
58	0xbdb44ffb	-0.088043176
59	0xbd8f879a	-0.07008286
60	0x3e4b2a90	0.19840455
61	0x3d8507d4	0.06495634
62	0x3d72220c	0.0591145
63	0x3d86c4df	0.06580519

fc2.weight f4 [64, 64]
0	0x3a4ae792	0.0007740195
1	0x3e28d06a	0.16485754
2	0x3e2012a8	0.15632117
3	0xbd401cda	-0.046902515
4	0x3e20e737	0.15713201
5	0xbd7f0b7e	-0.06226682
6	0xbe135f0c	-0.14391726
7	0xbf27c3d1	-0.6553317
8	0xbe2f0d81	-0.17094995
9	0xbf3ef928	-0.7459893
10	0xbe93d78b	-0.28875384
11	0xbf2b6d80	-0.6696396
12	0xbecdeffa	-0.4022215
13	0xbec488e4	-0.3838569
14	0xbe4ce332	-0.20008543
15	0x3d4929bf	0.049112078
16	0xbf17e518	-0.59333944
17	0xbdde509e	-0.1085522
18	0xbea1744c	-0.3153404
19	0xbe98edf0	-0.29869032
20	0xbe191352	-0.14948776
21	0xbdc39768	-0.09550363
22	0x3da1a73c	0.078932256
23	0x3df137b9	0.117782064
24	0x3d8312d3	0.06400075
25	0xbc49f0ab	-0.012325446
26	0x3da8b403	0.082374595
27	0x3dc7812d	0.09741435
28	0x3e97d030	0.29651022
29	0xbf5a5dec	-0.85299563
30	0x3e436fef	0.19085668
31	0xbe4bc5ce	-0.19899675
32	0xbf40bc09	-0.7528692
33	0x3d724708	0.059149772
34	0x3e805bda	0.25070077
35	0xbea970d9	-0.33093908
36	0xbf37eb39	-0.71843296
37	0xbe4b69ca	-0.19864574
38	0x3d98ddec	0.07464203
39	0x3dd8949c	0.1057522
40	0x3d29776e	0.041373663
41	0xbaed7400	-0.0018116236
42	0x3e26cb8f	0.16288589
43	0xbe153b59	-0.1457342
44	0xbdecf099	-0.11569328
45	0xbc72700b	-0.014797221
46	0xbdbef556	-0.09324138
47	0x3e5370f3	0.20648555
48	0x3e4f5172	0.20245913
49	0xbf284b6c	-0.65740085
50	0xbeaaf667	-0.33391115
51	0xbde3ebe5	-0.11128978
52	0xbe6272b8	-0.22114074
53	0xbf3670f1	-0.71266085
54	0x3e04f78f	0.12985061
55	0xbf2aae68	-0.6667237
56	0xbcf24908	-0.02957584
57	0xbd0df1e8	-0.034654528
58	0xbdea6c74	-0.11446467
59	0xbe8e17a6	-0.27752417
60	0x3d805a7b	0.06267258
61	0xbdaf27f4	-0.08552542
62	0xbdc0508a	-0.093903616
63	0xbde00125	-0.10937718
64	0x3dc7e272	0.09759988
65	0x3de06376	0.10956471
66	0x3dc2dce1	0.095147856
67	0xbe45b674	-0.19307882
68	0xbcf63864	-0.030056186
69	0x3e36b8b2	0.17843893
70	0xbe347b5a	-0.1762518
71	0x3e3859d8	0.18003023
72	0xbd1c0866	-0.038093947
73	0xbc79d2c4	-0.015248004
74	0xbdbb45fe	-0.09144209
75	0x3e0ba4b3	0.13637047
76	0xbf1d3f19	-0.61424404
77	0xbc9eb7d0	-0.019374758
78	0xbd0b4715	-0.034003336
79	0x3dbd8bd7	0.09255188
80	0x3dd5e919	0.104448505
81	0x3e2aaef2	0.16668299
82	0xbe24417f	-0.1604061
83	0x3d57ed62	0.05271662
84	0x3dcebae2	0.10094239
85	0xbec7df57	-0.39037582
86	0xbcf51c2b	-0.029920658
87	0xbd8dabeb	-0.069175564
88	0xbca8de29	-0.020613747
89	0x3e7ae547	0.24501525
90	0xbf0c7407	-0.54864544
91	0xbc66f69e	-0.014096884
92	0x3dee225d	0.11627648
93	0x3e09e0b0	0.13464618
94	0x3c78eacb	0.015192698
95	0xbc9bec83	-0.019033676
96	0xbdd4ba07	-0.103870444
97	0x3df6290b	0.12019547
98	0x3e01f35a	0.12690488
99	0x3d0749ff	0.033029553
100	0x3d4b52a9	0.049639378
101	0x3e5f9776	0.21835122
102	0x3ef196f8	0.47185493
103	0xbe429471	-0.19001938
104	0x3e06153e	0.13094041
105	0x3ce09b9b	0.027417948
106	0xbc646e6a	-0.01394234
107	0xbdde0958	-0.10841626
108	0xbe60db6b	-0.21958701
109	0xbd0ead04	-0.03483297
110	0xbf27a18a	-0.65480864
111	0xbd1ed7f9	-0.038780186
112	0xbe315799	-0.17318572
113	0xbd40fdd7	-0.04711708
114	0xbd04de9e	-0.032438867
115	0xbeb449e0	-0.35212612
116	0xbead298a	-0.33820754
117	0xbe378058	-0.17920053
118	0xbdb2408c	-0.087037176
119	0xbd17ad36	-0.03703042
120	0xbe6318c7	-0.2217742
121	0xbd041ba0	-0.032252908
122	0x3e3f6388	0.18690312
123	0xbd0638b9	-0.03276894
124	0xbec7935b	-0.3897961
125	0xbda04c07	-0.07827001
126	0xbefffba9	-0.4999669
127	0xbd994aed	-0.07484994
128	0xbdaf88ae	-0.085709915
129	0xbeac97b1	-0.3370948
130	0xbdf3e99c	-0.11909792
131	0xbccee15a	-0.02525394
132	0x3e193ca3	0.14964537
133	0x3e6a108e	0.22857878
134	0xbd09a97f	-0.03360891
135	0x3dd90837	0.1059727
136	0x3e052ad6	0.13004622
137	0x3d038b4e	0.032115273
138	0x3d8caa80	0.06868458
139	0x3d83c3c5	0.064338244
140	0xbbb76e13	-0.0055978387
141	0x3e8eb676	0.27873582
142	0xbcbedfe3	-0.023300117
143	0x3b2e68c7	0.0026612745
144	0x3d30c470	0.043156087
145	0x3e10eb4e	0.14152262
146	0xbe91fe2d	-0.28514233
147	0x3c40da98	0.011770867
148	0x3ca730a4	0.020408936
149	0x3e3948f7	0.1809424
150	0x3e392257	0.18079506
151	0xbe9f9ab0	-0.31172705
152	0x3e010da1	0.12602855
153	0xbec59a0c	-0.3859409
154	0x3c3f4486	0.011674052
155	0x3def223b	0.11676451
156	0xbe113873	-0.1418169
157	0x3e972a73	0.29524574
158	0xbe2b9a07	-0.16757976
159	0x3c358e27	0.011081255
160	0xbd12dde2	-0.035856135
161	0xbf05af16	-0.52220285
162	0xbeaa236e	-0.33230156
163	0x3dd78f4a	0.10525377
164	0xbcdb7d21	-0.026793065
165	0xbd0850b1	-0.03328008
166	0xbd56a008	-0.05239871
167	0xbc49bf6d	-0.012313706
168	0x3e9d0e31	0.3067489
169	0xbe3737e9	-0.17892422
170	0x3dec9a8c	0.11552915
171	0xbdd6778a	-0.10472019
172	0xbe9339ca	-0.28755027
173	0xbda15232	-0.07877006
174	0xbc9e6b01	-0.019338133
175	0xbba7126b	-0.005098631
176	0x3e794f54	0.24346668
177	0x3df72738	0.12068027
178	0x3c899ab0	0.016797394
179	0x3b601f7c	0.0034198454
180	0xbe583491	-0.21113802
181	0x3e8152ab	0.25258383
182	0xbe554e85	-0.20830734
183	0xbc3e5127	-0.011616028
184	0xbd41aef8	-0.047286004
185	0xbdaaddbb	-0.08343073
186	0x3f28fe42	0.66012967
187	0x3d62697d	0.055276383
188	0x3cda50f5	0.026649931
189	0x3edecb6e	0.4351458
190	0x3d36f665	0.044668574
191	0x3dd8d21e	0.10586952
192	0xbf179c08	-0.5922246
193	0x3dde7baf	0.108634345
194	0x3e9b83f1	0.303741
195	0xbdbf523a	-0.09341855
196	0x3ca3dbcd	0.02000227
197	0xbf19bf63	-0.6005766
198	0xbef6a53e	-0.48172945
199	0xbebd36bc	-0.36955822
200	0xbe6dd4f5	-0.23225768
201	0xbe3e74fc	-0.18599313
202	0xbdb28af8	-0.087179124
203	0x3da824a8	0.082101166
204	0xbe878be9	-0.2647393
205	0x3e1bfeb0	0.15233874
206	0x3e300f1a	0.17193261
207	0xbe9cc93c	-0.3062228
208	0xbdc739b1	-0.09727801
209	0xbe60c05f	-0.21948384
210	0x3eb00123	0.34375867
211	0x3d23388a	0.03984884
212	0x3dcdeae1	0.10054565
213	0x3dba08b7	0.090836935
214	0xbeb10df5	-0.3458096
215	0x3e02113e	0.1270189
216	0x3e2e01e0	0.16992903
217	0x3e6f310e	0.23358557
218	0xbd9acd0a	-0.07558639
219	0x3e4ac007	0.19799815
220	0x3d3a682d	0.045509506
221	0xbf2b5689	-0.6692892
222	0xbe1a4c3b	-0.15068142
223	0xbe1e1f70	-0.1544168
224	0x3e1cd7ed	0.15316744
225	0x3cc84bbe	0.02445018
226	0x3e878e86	0.26475924
227	0x3e037a48	0.12839615
228	0xbe67089f	-0.22561882
229	0x3e5b6aed	0.21427508
230	0x3efaef58	0.4901073
231	0x3e0bc2bf	0.13648508
232	0xbc0860cd	-0.00832386
233	0x3e3869c4	0.18009096
234	0x3ed94acb	0.42439875
235	0x3c52a58d	0.012856853
236	0xbcb98324	-0.02264554
237	0x3cf3542f	0.029703228
238	0xbf11d6a0	-0.56968117
239	0xbe2d8b58	-0.16947687
240	0xbd96cb88	-0.07363039
241	0x3d7cc426	0.0617105
242	0xbf626bc9	-0.8844572
243	0xbd1de5a1	-0.03854907
244	0x3d19f90e	0.037591033
245	0x3e05773b	0.13033764
246	0x3b9e07d2	0.0048227096
247	0xbd84f3fe	-0.0649185
248	0x3e292eda	0.16521779
249	0xbc4ac3f6	-0.012375822
250	0x3dbbe289	0.091740675
251	0x3ec02182	0.37525564
252	0xbeeedcbb	-0.4665278
253	0x3e8b7ae9	0.2724221
254	0xbe9dc7e8	-0.3081658
255	0x3d670cc4	0.05640866

fc2.bias f4 [64]
0	0xbd6f07b5	-0.05835696
1	0xbdfbb346	-0.12290053
2	0x3e2beb3a	0.1678895
3	0x3db60a95	0.08888737
4	0x3e240716	0.16018328
5	0xbe8b603d	-0.2722186
6	0xbdc87cc7	-0.097894244
7	0x3c31e4d6	0.010857781
8	0x3d8cde41	0.06878329
9	0x3f08a2fc	0.53373694
10	0xbc1142c1	-0.008866013
11	0x3e3fdcd3	0.18736582
12	0xbca4a9aa	-0.020100433
13	0xbd36fb90	-0.044673502
14	0x3dcb0df8	0.09914774
15	0x3c6457bd	0.013936934
16	0x3c336e72	0.010951625
17	0xbe262fea	-0.16229215
18	0xbcbee042	-0.023300294
19	0x3dce875a	0.1008441
20	0x3e2f0c79	0.17094602
21	0x3e9535b2	0.2914253
22	0xbe5bc5b9	-0.21462144
23	0xbd6283b1	-0.055301372
24	0xbd150026	-0.036377095
25	0xbe5e06e3	-0.21682315
26	0x3ce212e8	0.027596906
27	0xbd1fc434	-0.039005473
28	0xbd927b75	-0.07152454
29	0x3e1dc5b9	0.15407456
30	0x3cc88ead	0.024482096
31	0xbd917701	-0.07102776
32	0xbd7391c9	-0.059465203
33	0x3e50a9df	0.203773
34	0x3e2312b9	0.15925111
35	0xbba15739	-0.004923728
36	0xbe5d7558	-0.21626794
37	0xbdc72152	-0.09723152
38	0x3efbb390	0.49160433
39	0xbe207866	-0.15670928
40	0xbe2735c1	-0.16329099
41	0x3f169995	0.588281
42	0x3eb56e1a	0.35435563
43	0x3d22d7f8	0.039756745
44	0x3d92d1d6	0.07168929
45	0xbe17e13d	-0.14832015
46	0x3eb4d7d1	0.35320905
47	0xbe2d3dde	-0.16918132
48	0x3dd92914	0.10603538
49	0xbe181636	-0.14852223
50	0xbe05d815	-0.1307071
51	0x3e4342ae	0.19068405
52	0xbdda5123	-0.10660007
53	0xbd07fb48	-0.033198625
54	0x3ed7b732	0.42131954
55	0xbda85a26	-0.082203194
56	0xbe8dfe9d	-0.27733317
57	0xbe2c1ccc	-0.1680786
58	0x3e2b9f74	0.16760045
59	0xbdab9104	-0.08377269
60	0x3c60f68e	0.013730658
61	0x3df4d742	0.1195512
62	0x3e038644	0.12844187
63	0xbe1e0e0e	-0.15435049

fc3.weight f4 [4, 64]
0	0x3e02a896	0.12759623
1	0xbdfe7bcf	-0.12425958
2	0x3de01754	0.109419495
3	0x3df72b5d	0.12068818
4	0x3e3fada5	0.18718584
5	0xbe573423	-0.21015982
6	0x3ea47140	0.32117653
7	0xbe729d97	-0.23692928
8	0xbc33b06a	-0.010967353
9	0x3e2dc60b	0.16970079
10	0x3d8448db	0.064592086
11	0x3d2c93d6	0.042133175
12	0x3e9dce4b	0.30821452
13	0x3e2ea378	0.17054546
14	0x3e0e54be	0.13899514
15	0x3ca7e44a	0.020494599
16	0xbde5a70c	-0.11213502
17	0x3e23f091	0.16009738
18	0xbc07a941	-0.008280099
19	0xbe3f209c	-0.18664783
20	0x3e418edb	0.18902151
21	0x3dfbd7df	0.122970335
22	0xbd2d679d	-0.04233514
23	0xbd3bd362	-0.045855887
24	0xbd6d55b2	-0.057943054
25	0xbe09ffb9	-0.13476457
26	0xbe066eb2	-0.13128164
27	0xbeca3d65	-0.39499965
28	0x3d1a0922	0.037606366
29	0x3db59dcd	0.08867989
30	0xbe9e8cc7	-0.3096678
31	0x3e836b2b	0.256677
32	0x3de2c568	0.110728085
33	0x3e34582c	0.1761176
34	0x3e278565	0.1635948
35	0xbe57f1a0	-0.21088266
36	0x3f070559	0.52742535
37	0xbea92cd8	-0.33042026
38	0x3e708b7f	0.23490714
39	0x3f215f0b	0.6303565
40	0x3dbe26d7	0.09284752
41	0x3e3c1dbf	0.18370722
42	0x3d5c898f	0.053842124
43	0x3eea2e1c	0.45738304
44	0x3f03eb72	0.51531136
45	0xbda10976	-0.07863133
46	0x3e81af1f	0.2532892
47	0xbe361a73	-0.17783527
48	0x3e73a786	0.23794374
49	0x3f244267	0.6416382
50	0xbe7f76b6	-0.24947628
51	0x3ef1dce3	0.47238836
52	0x3e81f064	0.25378716
53	0x3de1e97f	0.11030864
54	0x3e3dc373	0.18531589
55	0x3e354833	0.17703323
56	0xbdb017e3	-0.08598306
57	0xbeaf6a7d	-0.34260932
58	0x3e348e80	0.17632484
59	0x3c178249	0.009247371
60	0xbd409648	-0.04701832
61	0x3e09dc44	0.13462931
62	0x3db575bd	0.088603474
63	0x3d7cffc0	0.06176734
64	0xbd80ce05	-0.06289295
65	0xbe5fd0d1	-0.21857001
66	0x3e2304fd	0.15919872
67	0xbf51e711	-0.81993204
68	0x3e93e888	0.28888345
69	0xbe270f2e	-0.16314384
70	0x3eb752c6	0.3580534
71	0xbeb540f5	-0.3540112
72	0xbd9af065	-0.07565383
73	0x3e2753de	0.16340587
74	0x3e17b89a	0.14816514
75	0x3e186839	0.14883508
76	0x3ed819f8	0.42207313
77	0x3cad1a0d	0.021130586
78	0x3d07b4d9	0.033131454
79	0x3d8aa2c4	0.06769326
80	0xbdc3acb6	-0.09554426
81	0x3eb808b2	0.35944134
82	0xbe2c7d59	-0.16844691
83	0x3e897cae	0.26852936
84	0x3e835a1e	0.2565469
85	0x3e16bb6e	0.14719936
86	0xbaf08651	-0.0018350576
87	0x3d223c04	0.039608017
88	0xbceae08c	-0.028671525
89	0x3d3fd6f0	0.04683584
90	0x3ea5af41	0.3236027
91	0x3e08d4e1	0.13362457
92	0xbea02056	-0.3127467
93	0x3dc66847	0.09687858
94	0xbcbd0c40	-0.02307713
95	0x3ea52097	0.32251427
96	0x3d3fedd2	0.046857662
97	0x3e3dd216	0.18537173
98	0x3e2ba1e0	0.16760969
99	0xbd8f88b1	-0.07008494
100	0x3e85a534	0.26102602
101	0xbe76b469	-0.24092259
102	0x3e57e32a	0.2108275
103	0xbd1b9a1e	-0.037988774
104	0x3dbf8861	0.09352184
105	0x3e3fa429	0.18714966
106	0x3dd8570d	0.105634786
107	0x3ee2c024	0.44287217
108	0x3efc711f	0.49305055
109	0xbe02414f	-0.12720226
110	0x3e4af257	0.19819008
111	0xbececb4d	-0.4038948
112	0x3e8460e6	0.25855178
113	0x3dedf9c6	0.11619906
114	0x3d902477	0.07038205
115	0x3eb8875b	0.36040768
116	0x3e56a4e8	0.20961344
117	0x3ecaaefd	0.3958663
118	0x3e2ac287	0.16675769
119	0x3dab5221	0.08365274
120	0xbd96b357	-0.07358425
121	0xbe821f4c	-0.25414503
122	0x3d9200e3	0.071290754
123	0xbf6e4daa	-0.93087256
124	0x3d8813b6	0.066443846
125	0xbb601256	-0.0034190617
126	0xbbd02360	-0.0063518733
127	0x3cb15b65	0.021650026
128	0x3e8f6e88	0.28014016
129	0x3f19e97c	0.60121894
130	0x3e8de6e1	0.2771521
131	0x3eba2b3e	0.36361116
132	0x3e439f0e	0.19103643
133	0x3ca84bc3	0.020543939
134	0x3f3a91ce	0.7287873
135	0xbe21e792	-0.15810993
136	0xbdd92e95	-0.10604588
137	0x3e40529b	0.18781511
138	0xbe060cfc	-0.1309089
139	0x3e85c90a	0.26129943
140	0x3ef69b76	0.48165482
141	0xbe472a2b	-0.1944968
142	0x3c9b78b8	0.018978462
143	0x3e6fa218	0.23401678
144	0x3d0eee5d	0.03489529
145	0xbef329a4	-0.47492707
146	0xbe258ccd	-0.16166992
147	0xbdcc3a26	-0.099720284
148	0x3e8672a4	0.2625934
149	0x3ddaffae	0.10693298
150	0xbe0f78d1	-0.14010932
151	0x3df97559	0.121805854
152	0x3e857145	0.2606298
153	0xbe6cd769	-0.23129047
154	0xbc016d7d	-0.007899639
155	0x3e8e36f5	0.27776304
156	0x3f05b1a4	0.52224183
157	0x3e8680cc	0.2627014
158	0xbe089773	-0.13339023
159	0x3e1d8851	0.15384032
160	0x3eb0e550	0.34549952
161	0x3d918582	0.07105543
162	0x3e460540	0.1933794
163	0x3df0f999	0.11766357
164	0x3e0f32a1	0.13984157
165	0xbda72024	-0.08160427
166	0x3e264754	0.16238147
167	0xbc35ee6b	-0.011104207
168	0x3d8519ca	0.064990595
169	0x3e54e5eb	0.20790832
170	0x3e5fa8ed	0.21841784
171	0x3e401d63	0.1876121
172	0x3e9b8953	0.30378208
173	0xbe357384	-0.17719847
174	0x3e47a8b4	0.19497949
175	0x3f470081	0.77735144
176	0x3edaf641	0.42766002
177	0xbd2b351c	-0.041798696
178	0xbef27b42	-0.47359663
179	0x3eb6ca87	0.3570139
180	0xbe7746e0	-0.2414813
181	0x3f3b7eda	0.73240435
182	0x3e2ab8de	0.16672084
183	0x3f3d0918	0.73842
184	0xbe3fbfbd	-0.18725486
185	0xbe941076	-0.2891881
186	0x3db6b915	0.0892202
187	0xbf035263	-0.5129759
188	0xbeb433cc	-0.35195768
189	0x3e367897	0.17819439
190	0xbdc925fd	-0.09821699
191	0xbbc72969	-0.0060779345
192	0x3f2ac1c1	0.66701895
193	0x3e7e56fb	0.24837868
194	0x3e332c5e	0.17497393
195	0xbefbbc07	-0.4916689
196	0x3ef31349	0.4747565
197	0xbe2953e4	-0.16535908
198	0xbe01b9fb	-0.12668602
199	0xbe5d4bb8	-0.21610916
200	0x3e1ee845	0.15518291
201	0x3e68f813	0.22750883
202	0x3f1175be	0.56820285
203	0x3db48396	0.088141605
204	0x3cbaa470	0.022783488
205	0x3ec79aa4	0.3898517
206	0x3d1ccc31	0.03828067
207	0xbca7e231	-0.020493599
208	0x3f8b04f1	1.0860883
209	0xbea388ec	-0.319404
210	0x3d83ceec	0.064359516
211	0x3ec3cad5	0.38240686
212	0x3e083ad8	0.13303697
213	0x3dda7680	0.10667133
214	0xbe8bfa2f	-0.27339312
215	0x3e7e7a4e	0.24851343
216	0x3c9d124f	0.01917377
217	0xbdabdce0	-0.08391738
218	0x3ca15dd7	0.019698067
219	0x3ea9462e	0.33061355
220	0x3ecacbdc	0.39608657
221	0xbd9216f1	-0.07133282
222	0xbe5175bb	-0.20455067
223	0x3e9549f4	0.29157984
224	0x3ecf0b7e	0.40438455
225	0x3e3167eb	0.17324798
226	0x3e24c005	0.16088875
227	0xbe141652	-0.1446164
228	0xbd87a8f8	-0.06624025
229	0x3e06cf25	0.13164957
230	0x3e504fd2	0.20342949
231	0x3f39c0cc	0.7255981
232	0xbdc11e10	-0.09429562
233	0x3e7f13ce	0.24909899
234	0x3e4de8ba	0.2010831
235	0x3e68c704	0.22732168
236	0x3f3393c6	0.7014736
237	0xbec211c5	-0.37904182
238	0x3e0d72cc	0.13813323
239	0xbe1f36b7	-0.15548216
240	0x3e2e31e3	0.17011218
241	0xbe562ef3	-0.20916347
242	0xbc61bf0b	-0.013778458
243	0x3e8f1ed1	0.279532
244	0x3e74dcb7	0.23912321
245	0xbe4bb641	-0.19893743
246	0x3e1c9449	0.15290941
247	0x3f1c2f3d	0.6100958
248	0xbe0608eb	-0.1308934
249	0xbea8f681	-0.33000568
250	0x3d9cedca	0.07662542
251	0x3e05a5a8	0.13051474
252	0x3cae8ad1	0.021306427
253	0x3e936866	0.28790587
254	0x3e7fee61	0.24993278
255	0xbd781f67	-0.060576823

fc3.bias f4 [4]
0	0x3e97d720	0.29656315
1	0x3eadea9d	0.33968058
2	0x3e6fefb7	0.23431288
3	0x3e700e6a	0.23442999
