checkpoint_ddqn.pth (torch_old, 28481 bytes, 6 tensors)

fc1.weight f4 [64, 37]
000000 91 84 4a be c4 62 b8 3d e9 f0 bd bb d4 8b c9 3b
       -0.19777133 0.09003213 -0.005796541 0.006150702
000010 9d 06 63 3c 82 b7 0b bd 34 dc 2f 3d 0a d6 42 3e
       0.013856557 -0.034110554 0.04293461 0.19026962
000020 85 d9 88 3b 3d b6 08 bd d1 f3 8c bd 49 3e c7 bc
       0.004176321 -0.03337692 -0.06882442 -0.024321692
000030 04 ee df bc 2f d1 35 be 59 e0 7f bd 4f 83 f0 bd
       -0.027335174 -0.17755578 -0.062469814 -0.11743795
000040 96 a1 f5 3d ce bb 48 3e b1 e5 8a bd 92 0a ea bd
       0.11993711 0.19602892 -0.067820914 -0.114277974
000050 09 b5 ce bc 26 fb 9b 3d 5f c4 52 3e 57 68 97 3d
       -0.025232809 0.07616262 0.20582722 0.07392948
000060 47 68 af 3e e0 5d 06 3e 33 34 9b 3d 3a 94 36 be
       0.34259245 0.13121748 0.075783156 -0.17829981
000070 94 78 e6 bd e8 71 8d be 8e c5 51 bd 29 c5 34 3e
       -0.11253467 -0.27625966 -0.051213793 0.17653336
000080 af e1 45 bd e1 a9 16 be bc 20 95 be 99 a2 18 be
       -0.04831093 -0.14713241 -0.29126537 -0.14905776
000090 a3 17 31 bc 52 a7 0d 3e 5c 94 29 3e 50 5b b7 3d
       -0.010808858 0.13833359 0.16560501 0.08952963
0000a0 89 33 93 bd 5d 63 c4 be 4d e6 16 bd 5c dd 08 3c
       -0.07187564 -0.38357058 -0.036840726 0.008353557
0000b0 8e e9 5f 3c 9e 15 45 be e9 49 d2 bd 0b d5 35 3e
       0.013666524 -0.19246528 -0.102680035 0.1775705
0000c0 55 ae 86 bd d5 f0 59 3c 5d a5 86 3d 46 ea a3 3e
       -0.0657622 0.013302048 0.06574509 0.32014674
0000d0 66 4a 20 3d 40 7a dd 3d 78 7e d7 3d 28 e3 1e 3e
       0.039133452 0.10814333 0.10522169 0.1551634
0000e0 39 59 a3 3d b2 0d 99 bd 34 09 f3 bd 5a a9 9a bd
       0.07976002 -0.07473315 -0.1186699 -0.075518325
0000f0 44 21 63 bb f9 90 da 3e 34 34 3d bc c7 d3 9b 3d
       -0.003465728 0.4268873 -0.011548091 0.07608753
000100 2b 5f ac 3d 6b 5d f6 bd 65 4b d5 be 84 19 69 bd
       0.08416589 -0.12029537 -0.41659084 -0.0569091
000110 6e 9a 31 3e 0a 23 ea 3d b7 82 1a 3e 94 21 8a 3e
       0.17344067 0.114324644 0.15088926 0.26978743
000120 00 99 6a bc 31 8d 34 3c c2 67 2f 3e be 00 0f 3e
       -0.014318705 0.011019991 0.17129424 0.13965127
000130 b3 a9 1b 3d 4a 62 5c bd 32 91 3d be b2 6f 55 bf
       0.038003635 -0.053804673 -0.18512419 -0.8337356
000140 1e f5 37 3e 29 e4 8a 3e 03 85 ef bd c6 a5 2e bf
       0.17964599 0.27127197 -0.11695292 -0.682217
000150 47 0e 3e be 77 d4 6d 3c cb e8 bc 3d ad 57 da 3d
       -0.18560134 0.014515988 0.09224089 0.10661254
000160 51 72 2b bd 60 15 c2 bd 47 da 2a 3e 5b 1e ad 3c
       -0.041857067 -0.09476733 0.16684829 0.021132639
000170 33 10 26 3e b6 94 ef bd 4d d1 a7 be 26 56 df 3c
       0.16217117 -0.11698286 -0.3277687 0.027262758
000180 20 24 17 3c b1 cc 6c 3e 13 bc 4f be 20 b1 a7 be
       0.009224921 0.23124959 -0.20286588 -0.32752323
000190 2c 73 aa 3e 58 6f ac 3d 4f 99 27 3d 26 a1 1e bf
       0.33290994 0.08419675 0.04091769 -0.61964643
0001a0 63 a0 09 bf e0 fe 27 3e 2b b2 66 3d ff 20 a3 bd
       -0.53760356 0.16405821 0.056322258 -0.07965278
0001b0 db 1d a6 be 2c 6e a5 bd e4 2c 70 3c 80 91 fa 3e
       -0.32444653 -0.08077654 0.01465914 0.48939133
0001c0 04 e1 0f bf 61 3e c8 bd 78 33 62 be fa b4 0d c0
       -0.5620272 -0.09777523 -0.22089946 -2.214171
0001d0 03 b1 c9 bc b0 8e 81 3d b7 45 e8 3b a4 f9 17 3d
       -0.024620539 0.063260436 0.007088389 0.03710331
0001e0 2a ca 9c 3a 8d bd 17 bc 96 df ca ba 88 5f e7 bc
       0.0011962105 -0.009261501 -0.0015478011 -0.028243795
0001f0 8e 08 6d bc 38 91 43 bd dd 5c b9 bc 48 96 50 3c
       -0.014467372 -0.047745913 -0.022627288 0.012731142
000200 90 1e d2 bd 76 ef 3d bd 3c ca 29 3b 71 a4 19 3c
       -0.102597356 -0.046370946 0.0025907895 0.009377585
000210 d4 03 97 3b a9 e1 c4 3c e6 27 3b bc bd 04 a5 bb
       0.0046086106 0.024033384 -0.011423087 -0.0050359652
000220 c6 74 bb 3d 60 27 07 3d a8 8e fd 3d 8b 33 af 3d
       0.09153132 0.032996535 0.12380725 0.08554753
000230 e8 b8 8d 3d e9 d0 6d 3d 10 b9 45 3d d3 ab 1b 3d
       0.06920034 0.05806056 0.048272192 0.03800566
000240 d5 4b 7d 3d 3b 1f 42 bd 2a a2 3f 3a af d8 02 3c
       0.061839897 -0.047393065 0.0007310236 0.007986232
000250 5e a9 e6 bd ce 0f 48 be 40 7a 80 bd 92 09 02 bf
       -0.11262773 -0.19537279 -0.06273317 -0.50795853
000260 20 0d 2f be 7b 60 e7 be 34 58 67 be 00 81 bf 3d
       -0.1709485 -0.45190796 -0.2259224 0.09350777
000270 5b 5f 18 be 7b 13 ea bf 28 c8 c9 be 92 c0 86 be
       -0.14880125 -1.8287195 -0.3941052 -0.26318794
000280 69 2d 22 3e cf 79 36 be 58 53 65 bf 43 72 3d be
       0.15837635 -0.17819904 -0.895803 -0.18500619
000290 af d9 2c bd 2e b1 a7 bc 73 69 98 bd 41 b0 22 3d
       -0.042199787 -0.020470228 -0.07441988 0.03971887
0002a0 4a 10 c1 be 67 67 09 3d 6a 50 0f 3e c8 9b 20 be
       -0.3770774 0.033545878 0.1399552 -0.15684426
0002b0 28 b2 04 bf 8d 8d 87 3d 02 31 0a bd 1c f8 fe 3c
       -0.51834345 0.066187955 -0.033738144 0.031124167
0002c0 45 bf 08 bf b0 d2 ad be b0 a0 29 be b5 17 99 be
       -0.53416854 -0.33949804 -0.16565204 -0.299009
0002d0 9e 0f 71 3e 0f 70 02 bf 65 d5 09 bf e1 91 8c bd
       0.23541114 -0.5095224 -0.5384124 -0.06863762
0002e0 fa 71 9b 3d eb c6 38 3d 6e c0 bb bc 54 47 30 bd
       0.07590099 0.045111578 -0.022918906 -0.043036774
0002f0 4c 32 05 3d 44 ba 7f 3d ed 15 a8 3e e2 6a 86 be
       0.03251867 0.062433496 0.32829228 -0.2625342
000300 13 94 6d bd 28 21 a5 be 10 a7 05 c0 56 ca ce bd
       -0.058002543 -0.3225186 -2.0883217 -0.10097186
000310 3d a9 bb 3c a9 0d 9c 3c 4b 4d 5b bd 20 e3 13 be
       0.022907848 0.019049482 -0.05354051 -0.1444211
000320 af aa 46 bd 42 c7 de 3d f3 01 97 bc 12 ea ed ba
       -0.04850262 0.10877849 -0.018433547 -0.0018151423
000330 f8 2e 83 bd 01 b5 97 3c 03 b7 31 3e 50 63 2d 3e
       -0.06405443 0.018518927 0.1735497 0.16932416
000340 33 ef d3 3d ab 1d 82 3e 7a 6b 0b be d8 2a 5c 3e
       0.10348358 0.2541326 -0.13615218 0.21500719
000350 bb 94 73 3d 22 c8 7c 3e fc 5a 56 3e 6f 5e c3 3d
       0.059468012 0.2468572 0.20933145 0.09539496
000360 71 c8 b2 bc 0f ad 07 be 29 a1 be 3d 89 a1 8c be
       -0.021824094 -0.1324961 0.093080826 -0.27466992
000370 d6 c6 16 bd ba d4 68 3c c5 97 0f be 7c 20 e6 bd
       -0.03681072 0.014210874 -0.14022739 -0.11236665
000380 22 89 d5 3b 66 db 01 3e bf fe 00 be 05 fe d3 bd
       0.0065165916 0.1268135 -0.12597178 -0.10351185
000390 3d 3c 21 be 66 be 37 3c b8 71 bf bc bd da ab 3e
       -0.15745635 0.011214828 -0.023369655 0.33565322
0003a0 b1 5e 7d 3d 9b c0 24 3d 2f d8 b9 bd e9 d9 c5 3d
       0.061857883 0.040222745 -0.09074437 0.09660704
0003b0 c0 bc fd 3d ed 34 98 be a1 9a c2 bd 00 02 b6 3d
       0.12389517 -0.2972788 -0.095021494 0.088871
0003c0 ec a1 e2 3d 78 6b c6 bd 82 db 31 3d 69 65 61 be
       0.110660404 -0.09688467 0.04342223 -0.22011341
0003d0 ca b3 91 be 9f a1 d9 3d b9 61 1c 3e f7 b9 2a be
       -0.2845748 0.1062653 0.15271653 -0.16672502
0003e0 97 19 2a be 7f e8 4f 3d cd 72 11 be d4 2c bd 3d
       -0.16611324 0.050758835 -0.1420395 0.09237066
0003f0 75 2e 21 3e 3d 60 67 bd 86 04 cc be b4 f8 95 3c
       0.15740378 -0.056488264 -0.398472 0.018307067

fc1.bias f4 [64]
000000 3c 0f 28 3e 75 49 04 3d 80 9d 93 bd 7d 3a a0 bd
       0.16412061 0.032296617 -0.07207775 -0.07823656
000010 c3 6f 1b 3e 80 d4 8c 3c 3c 62 13 be 97 8d 9f 3d
       0.15179352 0.017191172 -0.14392942 0.07790678
000020 dc 52 ae bc 37 ec 70 be d8 43 3e 3e 12 ee 35 3e
       -0.021279745 -0.23527609 0.18580568 0.17766598
000030 29 d6 07 3e ca 4d 84 3c 58 01 5d bd ab ab f6 bc
       0.1326529 0.016150374 -0.05395636 -0.030111155
000040 85 3a 56 3d 03 1f d1 3c f3 40 cb 3b d6 e5 34 be
       0.052301902 0.025527483 0.006202811 -0.176658
000050 1c 03 29 bd c4 bb ae 3c 47 15 2d 3c de 6c bb bd
       -0.04126273 0.021329768 0.010564155 -0.09151624
000060 27 3c 12 be 54 2e 15 3e 5d 5c 15 bd ca f3 d8 bd
       -0.14280759 0.14568454 -0.036465038 -0.10593374
000070 c0 46 97 3d b8 81 63 3e 18 c9 bf 3d 99 8e 31 be
       0.07386541 0.22217453 0.093645275 -0.17339553
000080 e2 1f 0a 3e 18 72 46 3d b0 3d 72 be b5 03 0f 3d
       0.13488725 0.048448652 -0.23656344 0.034915645
000090 71 f9 62 bd b1 55 53 3d dc c6 af 3c fa ff 2f be
       -0.055413667 0.051595394 0.021457128 -0.17187491
0000a0 98 30 e2 3c 09 47 ce bd 30 d7 25 be b8 09 62 3e
       0.027611062 -0.10072143 -0.16195369 0.2207402
0000b0 07 4f 59 3c 22 90 94 bd 51 3f dc 3d 58 f1 7c bd
       0.0132634705 -0.07254054 0.10754264 -0.0617536
0000c0 76 fd 73 bd b1 bd e6 3d a4 9e c0 bd ad b5 9c 3d
       -0.05956789 0.112666495 -0.09405258 0.076518394
0000d0 9c 8c 14 bd 25 f0 0c be a0 1e 4a be ce 71 d7 bc
       -0.036266908 -0.13763483 -0.19738245 -0.026299383
0000e0 ed d5 a7 3c d7 69 12 3e f0 da 25 be bb b5 20 be
       0.02048775 0.14298187 -0.161968 -0.15694325
0000f0 28 66 81 3d 42 b8 a8 3d 7c 7c 9b 3c 8e d4 d0 3d
       0.06318313 0.082382694 0.018980257 0.101967916

fc2.weight f4 [64, 64]
000000 d3 48 b5 3d 2a 2a 83 3d 39 14 4a bd 30 c3 60 3d
       0.08851781 0.064045265 -0.049335692 0.054873645
000010 99 8a 87 3e c2 56 81 be 4d 21 fc 3d a2 3f 22 be
       0.2647293 -0.25261503 0.12311039 -0.15844586
000020 44 6b 50 3d 3f d5 9f 3c 50 4d f9 3c 54 e8 92 be
       0.050883546 0.019510863 0.030432373 -0.28692877
000030 e0 8e 22 3d d4 93 8f 3e a2 ff f9 bb b0 08 d7 bc
       0.039687037 0.2804247 -0.0076293508 -0.02624926
000040 6f 20 ae 3c 55 2a ca 3d 50 c3 9b be 24 be 94 3d
       0.0212557 0.098713554 -0.3042245 0.07262829
000050 95 e3 64 be 29 99 0e bc d7 28 0e be d0 71 d1 3c
       -0.2235244 -0.008703508 -0.13882767 0.025566965
000060 28 05 92 3c 6c 44 c1 bc 99 5b 9b 3e eb d0 e3 3c
       0.017824724 -0.023592196 0.3034332 0.02780958
000070 a4 72 02 3e 96 38 c7 bd 4b bb 7b 3e b5 d0 45 3e
       0.12739044 -0.0972759 0.24583165 0.19317897
000080 6a c3 77 3e aa 87 1d bd 9a ae 01 3e af ab 5c 3d
       0.24195638 -0.038459457 0.12664261 0.053874668
000090 12 d9 d7 3b 7b 4e 77 3d c5 a0 2c 3e d8 3e f6 bd
       0.006587156 0.06037758 0.16858204 -0.12023705
0000a0 78 43 2e be ad 21 e8 be c4 73 b3 bd a4 22 ab bd
       -0.17017925 -0.45338193 -0.08762315 -0.083562165
0000b0 ad 96 38 3e 2e 29 08 be 12 29 ae be a5 1b 1c be
       0.18026228 -0.13296959 -0.3401571 -0.1524492
0000c0 df 7e 0f bf 39 18 cc bd 88 c8 86 be 0e 4c 37 bc
       -0.56052965 -0.099655576 -0.26324868 -0.011187566
0000d0 dd 98 15 3c 66 f3 ab be b4 91 38 be a3 a3 c5 be
       0.009130684 -0.33584136 -0.18024331 -0.38601407
0000e0 4a 90 d0 3c 3f 36 08 3d 52 83 73 bd 8c 68 c7 3d
       0.025459427 0.033254858 -0.05945141 0.097367376
0000f0 51 03 04 3e bf 8d 67 3e 79 59 4a bd bf 35 33 3e
       0.1289189 0.22612666 -0.049401734 0.17500971
000100 89 cd 9d 3d d3 30 80 3d 6c f1 f8 be 72 e2 76 bd
       0.07705218 0.062593125 -0.4862169 -0.06027455
000110 d1 64 6e 3e 83 c0 24 3e 08 1f 0a be d6 7e 63 3e
       0.23280646 0.16089062 -0.134884 0.22216353
000120 ee 69 9d be 24 d9 a3 be 93 fd e5 bd e5 b4 d2 3d
       -0.3074488 -0.32001603 -0.11230006 0.10288409
000130 24 27 65 be 05 f2 a4 bc 91 5c d7 be 1a 83 3d be
       -0.22378212 -0.020134935 -0.4206281 -0.18507043
000140 04 46 fd 3d 46 ae 71 be ad b7 df bd ad 73 5a be
       0.1236687 -0.23601636 -0.10923705 -0.2133319
000150 2d b5 bd 3d c3 13 35 be ef 98 01 3e e7 35 38 3e
       0.09263072 -0.1768332 0.12655996 0.17989312
000160 92 b5 2e 3d ff 31 f2 ba 33 6a 41 be f7 cd 9b bd
       0.042653628 -0.0018478035 -0.18888168 -0.07607644
000170 25 fe c7 3d 5b 02 d9 bc 6d f9 2d 3d 35 93 a4 3d
       0.09765271 -0.026490381 0.0424742 0.0803589
000180 bd 9f 4e be bf bd 11 3e c0 ed 4f be 4a 77 83 bc
       -0.20178123 0.14232539 -0.20305538 -0.016048092
000190 c5 12 76 bd a3 2d 8d 3e d2 39 c3 bc 15 9c ac be
       -0.060076494 0.2757388 -0.023831282 -0.3371283
0001a0 6b c4 01 be cc d0 ae 3d 54 ea 8f be b7 2c c3 bd
       -0.12672584 0.085359186 -0.28108466 -0.09530013
0001b0 46 0d ba be 4b a5 c6 be fa b0 e6 bd bd e1 06 be
       -0.36338252 -0.38797984 -0.11264224 -0.1317205
0001c0 49 a3 ee bb f1 5b e2 bd a6 fa 30 bd 50 a5 ea 3d
       -0.0072826487 -0.11052693 -0.043207787 0.11457312
0001d0 f9 50 72 be ed 2e 80 3d 9b e0 df 3e 95 13 69 3d
       -0.23663701 0.062589504 0.43726048 0.05690344
0001e0 37 23 ba bd d8 3b 52 bd 86 14 cd bd 38 87 19 be
       -0.09088748 -0.051326603 -0.1001368 -0.14992988
0001f0 f6 5b ae be 5d 95 06 3e e3 2a 8b bd 23 e9 48 3d
       -0.34054536 0.13142915 -0.06795289 0.04905046
000200 99 75 79 3d 65 ec 3f bd ef 83 62 3b 69 64 02 bf
       0.060903165 -0.046856303 0.0034563502 -0.50934464
000210 83 a5 06 bc 31 b3 cf 3c 55 fc a9 bc b6 9f 3b 3c
       -0.008218172 0.025354 -0.020750204 0.011451652
000220 c3 10 b4 3d bb d5 1c be 55 bb 3a 3d 60 cf d4 bc
       0.087922595 -0.15315907 0.04558881 -0.02597779
000230 3c 63 7c 3e 86 1c f9 3b c8 8e 88 bd a7 30 29 be
       0.2464723 0.007602277 -0.06667858 -0.16522466
000240 80 77 07 be b7 6c 4f 3e 22 16 46 be d7 aa 1c 3e
       -0.1322918 0.20256315 -0.1934438 0.15299545
000250 a4 11 98 bc 24 86 98 bd bd 83 f3 3c 37 ee 38 3d
       -0.0185631 -0.0744746 0.029725904 0.045149054
000260 47 93 5d bd a8 a1 a0 be 9b 77 d0 3d 24 6b 9a 3e
       -0.054095533 -0.31373334 0.10179063 0.30159867
000270 ef 7d 30 bd f8 50 54 3e b4 df 90 3e 20 5f 6a bd
       -0.04308885 0.20734012 0.28295672 -0.057219625
000280 d0 e8 ef bd fd 08 e8 3d 84 aa 42 be d9 22 b0 3d
       -0.11714327 0.113298394 -0.19010359 0.08600397
000290 7e 62 44 bd 09 9e 84 bd 5e 8b 42 3c fc ba b8 3d
       -0.047945492 -0.06475455 0.011874048 0.090200394
0002a0 82 b7 67 3d 3e ae 6e bc 91 57 a8 3c 7b 29 9e bd
       0.05657149 -0.01456791 0.020549567 -0.077227555
0002b0 8b b7 d4 3d fa cb 80 bd 44 01 a1 bd cb a0 4c 3d
       0.103865705 -0.062889054 -0.078615695 0.04995803
0002c0 fe 43 39 3e b0 1d ae bd 14 25 54 bd d1 7e 85 3d
       0.18092343 -0.08501756 -0.051793173 0.06518329
0002d0 f1 43 a5 3d b2 f6 d2 bc fb 1e 9d be c9 7f 01 3e
       0.080695994 -0.0257524 -0.306877 0.12646402
0002e0 86 f9 2e bc f3 88 3d be f8 aa 75 3e 4e 14 83 be
       -0.010679608 -0.18509273 0.23991 -0.2560143
0002f0 42 90 22 bd b1 ca e5 3d ca 6c 5e bd e7 02 2b 3e
       -0.039688356 0.11220301 -0.054302968 0.16700326
000300 80 c9 b1 3d f9 ce 49 be 3b 89 51 3d 37 da b5 be
       0.08681011 -0.1970786 0.051156264 -0.35518047
000310 c2 8b c2 be 83 a6 85 ba 3f 1b 48 be 83 4f bb bd
       -0.37997252 -0.0010196719 -0.19541644 -0.09146025
000320 a8 80 d8 bd 63 68 22 3e e7 e9 64 bc c3 c6 64 3d
       -0.10571414 0.15860133 -0.013971782 0.055853616
000330 14 78 42 be f3 a5 73 bd 41 43 8d bd e4 96 93 be
       -0.18991119 -0.059484433 -0.06897593 -0.28826058
000340 97 a9 54 bd 2f b9 0a bd 88 59 8f be 9a 56 10 be
       -0.051919546 -0.03386801 -0.27997994 -0.14095536
000350 12 75 17 bd 85 4a 14 bc 81 6c 5c be d0 de 6e 3e
       -0.03697688 -0.00905097 -0.21525766 0.23327184
000360 e5 7b 55 3e 15 6b 1b bf 31 a8 12 3e c6 8a 63 3c
       0.20848043 -0.6071027 0.14321972 0.013888067
000370 da 7f 2e 3e 55 6a c4 be 8b 0a 31 3f 70 b2 a4 bb
       0.17040959 -0.38362375 0.6915671 -0.005026154
000380 85 4a 21 be 02 a6 52 3e 38 0d 5d 3c 1b 18 8b 3e
       -0.15751083 0.2057114 0.013491921 0.2716683
000390 a7 0c 9d bd 97 1c f9 bd a4 91 40 bd 3d 82 b7 3c
       -0.07668429 -0.12163656 -0.047013894 0.02240097
0003a0 43 70 71 bc 3a 94 52 3e 06 b3 35 bd f7 43 e2 bd
       -0.014736238 0.20564356 -0.044360183 -0.110481195
0003b0 ff 39 8f 3d 5d 83 d4 3d c6 39 09 be 3a d8 5a be
       0.06993484 0.10376618 -0.13400945 -0.21371546
0003c0 2e db 55 3e d1 d8 17 be fa d8 93 be cf 13 99 3d
       0.20884392 -0.14828803 -0.28876477 0.07474481
0003d0 63 e8 df 3d 82 f3 24 be 09 1e 8a 3e 0e 40 3e 3e
       0.10932996 -0.16108516 0.2697604 0.18579122
0003e0 83 97 83 be 47 5e ae bd 50 bb 92 be 8a 42 e3 bc
       -0.25701532 -0.08514076 -0.28658533 -0.02774169
0003f0 b7 1f 90 bd 5d 97 e1 3d 03 f4 68 be f4 f5 2c bd
       -0.07037299 0.110151984 -0.22749333 -0.042226747

fc2.bias f4 [64]
000000 74 56 39 bd 4f 36 51 bd e8 2e 12 3e 80 7d 09 3b
       -0.045248464 -0.051077183 0.14275706 0.0020979345
000010 30 8d 3b 3e 7e ce 12 be 86 d9 99 bd 89 7b 65 3d
       0.18315578 -0.14336583 -0.075121924 0.056026015
000020 69 dc 54 3e 1a 4e 10 3f ac 0b bd 3d 8f ac e8 3d
       0.20787205 0.56369174 0.09230742 0.11361038
000030 db ea b7 3d 52 26 2f 3d ce f4 10 be 34 86 0c bd
       0.08980342 0.042761154 -0.14155886 -0.034307674
000040 38 a2 0d 3d 46 92 9b bc 46 fc 46 bd a0 92 94 3e
       0.034578532 -0.018990647 -0.04858043 0.29018116
000050 f6 4e 52 3e e4 ba b9 3e 88 50 5d be db 65 34 be
       0.20537934 0.362754 -0.21612751 -0.1761698
000060 5d ca 1e be 47 96 4c be 98 83 09 3e b3 a5 60 bd
       -0.15506883 -0.19979201 0.13429105 -0.054845523
000070 f9 58 b3 bd ab 3c e0 3d 8e f5 1e 3e 57 27 eb bb
       -0.087572046 0.109490715 0.15523359 -0.0071763205
000080 c8 97 92 bd 8b 8e c6 3c e3 16 89 3d 31 ff 6a bc
       -0.07157856 0.024237892 0.066938184 -0.014343069
000090 d4 1a dc bd 09 e3 3c be 40 f9 f6 3d 3f d1 fa 3b
       -0.107473046 -0.18445982 0.120592594 0.0076543386
0000a0 22 67 33 be 29 cc 21 3f 4c 04 15 3e 17 24 d4 bd
       -0.17519811 0.6320215 0.1455242 -0.10358446
0000b0 31 15 98 3e d7 f4 21 be f9 f4 1e bd cb 58 00 be
       0.29703668 -0.15816055 -0.038807843 -0.12533872
0000c0 f1 24 04 3e 73 c6 08 be 35 4f 3a be ed ec 05 3f
       0.12904717 -0.13356952 -0.18194278 0.52314645
0000d0 58 27 6e bd a0 57 77 be 73 ce 8f 3e b3 e1 4b 3e
       -0.05814299 -0.2415452 0.28087196 0.19910316
0000e0 85 3f 1d be e7 77 6d be 8d 3b a8 3d f8 83 da bd
       -0.15356262 -0.2319027 0.082144834 -0.10669702
0000f0 51 1c 75 bd c0 03 73 3d 6a 75 8a 3d 8b 94 12 3d
       -0.059841458 0.05932975 0.06760676 0.035786193

fc3.weight f4 [4, 64]
000000 5b a2 1a be 13 0a d9 3d 6a c1 dc 3c 01 22 c9 3e
       -0.15100996 0.10597625 0.026947696 0.39283755
000010 90 c2 4d 3e 85 ce 5a 3b 52 25 c2 3e b5 42 2c be
       0.20093751 0.0033387255 0.37919098 -0.16822322
000020 5b 21 8c 3d 0f ba 3f 3e 29 3d 22 3d b5 ca 88 3d
       0.068422996 0.1872332 0.039609108 0.06679288
000030 fc 5a b8 3d 41 cb c2 3d 35 43 66 be 1b f6 84 be
       0.09001729 0.09511424 -0.22486575 -0.25969014
000040 bd d8 eb 3e 50 01 65 3e d0 d1 cb 3e a8 cb 69 3e
       0.46063796 0.22363782 0.39808512 0.22831595
000050 4e 7e 9e 3e 05 1b 72 3e 06 c9 1c be 2a 6a 16 be
       0.30955738 0.2364312 -0.1531106 -0.14688936
000060 20 48 ea bd 5b 76 34 be 32 f8 23 3e c1 3d ba be
       -0.11439538 -0.17623274 0.16012648 -0.3637524
000070 42 68 c1 3e a3 06 5d 3c 58 a1 ee 3e aa cb db 3e
       0.37774855 0.013490352 0.4660747 0.4292882
000080 ab 60 95 3d 7e 60 5f be 5f cb cd 3d 63 e7 f0 3e
       0.072938286 -0.21814153 0.100485556 0.47051534
000090 98 b6 7e be b7 64 a3 bd 95 95 92 3b b2 fe 7f bd
       -0.24874341 -0.07978194 0.004473398 -0.062498756
0000a0 3e b9 f1 bd 4e 64 5a 3e 97 0f b7 3e 8f e5 65 3e
       -0.1180291 0.21327326 0.35754082 0.22450851
0000b0 a2 25 f9 3d 13 4c f5 bc 20 8d 90 3d db 90 ae be
       0.12165381 -0.029943502 0.070581675 -0.3409489
0000c0 a6 19 02 3f c6 f7 1c bd db 40 25 be 73 2c 48 3e
       0.50820386 -0.038322233 -0.16138022 0.19548206
0000d0 be f6 90 3e 20 33 32 be 05 37 10 3e 92 2c 0b 3e
       0.2831325 -0.17402315 0.14083488 0.13591221
0000e0 7f ad bf 3d 37 65 46 be 71 62 bf 3e 80 01 06 bd
       0.09359264 -0.19374548 0.37379792 -0.032716274
0000f0 af d1 df bd d8 e7 bf 3e cd 4f 12 bf b8 09 aa 3e
       -0.10928666 0.3748157 -0.57153016 0.3321054
000100 b5 17 9d 3e ad 23 45 3d 69 61 01 3e e1 f6 2b 3f
       0.3068215 0.048129726 0.12634815 0.6717358
000110 72 b5 20 3e a9 99 9b bd cb 9c b8 3e 47 2b 19 bd
       0.15694216 -0.07597668 0.36057124 -0.037394788
000120 6a 88 bb 3d ce 76 48 3e 06 af 37 3c f9 a4 12 3d
       0.09156878 0.1957657 0.011211162 0.03580186
000130 92 25 d3 3d 2b da 8a 3e af c4 4b be 1f 55 17 bd
       0.103099 0.27119574 -0.19899248 -0.036946412
000140 a1 c2 a6 3e 86 aa fd 3e b5 30 e2 3e 09 99 ca 3d
       0.32570365 0.49544162 0.44177786 0.098924704
000150 c8 34 90 3e 61 40 66 3e 48 1c 37 be e5 a7 d1 bd
       0.2816527 0.22485496 -0.17881882 -0.102371015
000160 37 c2 4f bd df 71 14 bd 48 65 3b 3e bb 8e f3 be
       -0.050722327 -0.03624141 0.18300354 -0.47569832
000170 be 66 f8 3d 6d 79 16 3e 9b c8 bd 3e 1c 9f e2 3e
       0.121289715 0.14694758 0.37067112 0.44262016
000180 b4 eb 47 3c 4e 96 f4 3d 4f 86 1a 3e 7c e8 b3 3e
       0.012202192 0.11942731 0.15090297 0.3513831
000190 1a 3b 9a 3d 59 6a f8 bd b6 24 b7 3d 40 3c 09 3e
       0.07530804 -0.12129659 0.08942549 0.1340189
0001a0 2f 42 55 bd be d0 54 3e 48 20 5e 3e 3f 77 77 be
       -0.05206507 0.20782754 0.21692002 -0.24166583
0001b0 c2 2e 25 3e d7 9c 0d be 2e cf f2 3d f4 d8 52 be
       0.16131118 -0.13829361 0.11855923 -0.20590574
0001c0 65 09 8e 3e 62 8c 7a 3d 3a 55 32 be 7c 8f 39 3e
       0.27741542 0.061169036 -0.17415324 0.18121141
0001d0 79 11 36 3d 78 5f 3b bd fa 30 f7 3d e5 b8 28 3e
       0.044450257 -0.045745343 0.120698884 0.16476782
0001e0 f0 ee 13 be 36 ee 32 be db cc b9 3e a8 f9 c2 bd
       -0.14446616 -0.17473683 0.36289105 -0.095202744
0001f0 c0 24 8f 3d 18 f7 06 3e cf 85 79 bd 04 d8 a0 3e
       0.069894314 0.13180196 -0.060918625 0.31414807
000200 66 0d a3 3e 40 f9 bd 3d 30 a8 15 3e a1 f1 53 3f
       0.3184616 0.09276056 0.1461494 0.8279057
000210 e0 87 ab 3e 9e 58 65 bd d3 13 da 3c 65 7c 8d 3c
       0.33502102 -0.055992715 0.026620781 0.01727123
000220 ba 92 8c 3d e5 75 72 3e 85 d8 32 3e 21 0f 9b 3e
       0.06863923 0.23677786 0.17465408 0.3028498
000230 65 2b 18 3e 6e e2 c7 3d ba f0 a2 be 38 18 4a be
       0.14860304 0.09759985 -0.31824285 -0.19735801
000240 6e 76 2f 3e 88 08 75 be 60 93 89 3e 1d 13 be 3d
       0.17135021 -0.23929036 0.2687025 0.09280989
000250 0a 28 49 3e ca d4 1a 3e da cb ba be f5 8c 1e 3d
       0.1964418 0.15120235 -0.3648365 0.038708646
000260 1d 8f 49 3e 34 90 80 bd b7 bc b6 3e 84 4b b1 be
       0.196835 -0.062775046 0.35690853 -0.34627926
000270 9e 87 bc 3d 20 f1 79 3e ff 25 9c 3e 10 56 99 3e
       0.092055544 0.24408388 0.3049774 0.29948473
000280 88 80 7e bd 21 58 75 3e 49 0b 02 3e ef 4e 20 3f
       -0.062134296 0.239594 0.12699617 0.62620443
000290 bb d8 d9 be 94 c6 b5 bc 07 de a3 3e d7 69 90 bd
       -0.42548165 -0.022189416 0.3200533 -0.07051437
0002a0 73 32 82 be 2f 8e 74 3e 12 94 30 3e 75 23 3d 3e
       -0.25429115 0.23882364 0.17243984 0.18470557
0002b0 1a 7c 92 3d 3a aa 88 bb db e0 47 3e 7a 30 94 be
       0.07152577 -0.004170683 0.1951937 -0.28943235
0002c0 f7 67 75 3e 5a f6 a1 be b5 b7 6b bc d3 fe 26 3e
       0.2396544 -0.31633264 -0.014387061 0.16308145
0002d0 17 a1 a4 be 88 ef 81 be 54 b8 a5 3d 16 db 92 3e
       -0.32154152 -0.2537806 0.080917984 0.28682774
0002e0 87 34 7a be 01 8f f4 bd dd c0 22 3e 0e f5 81 bd
       -0.244341 -0.11941338 0.15893884 -0.063455686
0002f0 f4 e0 68 be c0 96 d4 3c c5 6b ac be 3b 5d 93 3d
       -0.22742063 0.02595079 -0.33675972 0.07195517
000300 e9 96 1d 3e 9e a7 81 3e 23 13 09 3e 6a a2 4c be
       0.15389599 0.25323194 0.13386206 -0.19983831
000310 98 04 c2 3d da 51 88 be b7 f4 8d bd 7b f1 2d 3e
       0.094735324 -0.26624948 -0.06931441 0.16986649
000320 15 e8 5a 3e 09 4e 4f 3e 19 f0 8e 3e 1c 2d 2b 3c
       0.21377595 0.20244612 0.27917555 0.010447767
000330 27 b3 96 3e 66 3a 5f 3e 7f 2c e1 bd ff e9 18 be
       0.29433557 0.21799621 -0.10994815 -0.14933012
000340 53 cc c3 3e 5b 44 19 3f 05 24 ee 3e e2 65 e7 3d
       0.38241825 0.5986993 0.46511856 0.112987295
000350 14 0c 3d 3e f0 44 52 3e cd 2c 0d be da f4 30 3e
       0.18461639 0.2053411 -0.13786621 0.17280903
000360 2f dd 89 bc 54 20 4f be 57 e7 d4 bc 1d 1a 89 3b
       -0.016829101 -0.20227176 -0.025989218 0.004184021
000370 f4 25 a7 3e 19 5e db 3b 97 04 c8 3e 31 12 27 3e
       0.32646143 0.006694567 0.39066002 0.16315533
000380 eb c2 31 bd 59 33 37 be e5 5c 85 3c 8a 1f 20 3e
       -0.04339878 -0.17890681 0.016279647 0.15637031
000390 f8 ec 69 be d6 5a 56 be ee bf ab 3d 28 63 a6 3e
       -0.22844303 -0.20933089 0.08386217 0.32497525
0003a0 97 d2 37 be c6 b2 7b 3e a8 4d 03 3e 62 4e 33 bf
       -0.17951427 0.24579915 0.12822592 -0.7004148
0003b0 60 63 71 3e ac 9b 85 be 73 f0 0a 3e fa ed 2f 3c
       0.23573065 -0.2609533 0.13568287 0.01073789
0003c0 18 1d 10 3f c3 4c 7a 3d c3 80 03 3e d9 80 2b 3e
       0.56294394 0.061108362 0.12842087 0.1674837
0003d0 10 a1 b0 be b3 9c 22 3c 3b 9e 1a 3e 2b 8f 7c 3e
       -0.3449788 0.009925055 0.15099423 0.24663989
0003e0 2e a1 af be 76 a5 89 be f3 a7 f4 3d 83 e9 72 be
       -0.34302658 -0.2688405 0.11946096 -0.2372189
0003f0 85 65 95 be ea f9 b6 3d b0 3c 0d bf 24 b2 8d 3d
       -0.29179016 0.08934386 -0.55170727 0.06918743

fc3.bias f4 [4]
000000 4b 45 bb 3e 70 14 a8 3e b3 d4 85 3e 25 23 73 3e
       0.36576304 0.32828093 0.2613884 0.23743875
