checkpoint.pth (torch_old, 28481 bytes, 6 tensors)

fc1.weight f4 [64, 37]
00000000: df80 7a3c 2512 ce3d ebbe a83c f2d1 9f3d
00000010: 05a2 823d ac19 353e 3aad 013e eff2 1b3e
00000020: 75d0 6d3e 40f2 173e 8947 1cbd f68c 723c
00000030: ecff 08bd 7196 59bd 23a0 e03c 2e20 da3d
00000040: 6524 0d3e 00d0 913d bcb1 023e ca48 913d
00000050: 411d 8d3d 1284 0e3e 0d24 273e 2868 693e
00000060: a3ef 293d f319 c13c c656 af3d 0790 c93d
00000070: ec38 2f3e fd87 3f3d 1c63 ec3e e41f 51bf
00000080: 62e0 65bf 95ca 89bf 686b 60c0 b31e a73a
00000090: a5f5 543a 1f4a e3be 34ff b93e b7ed 95be
000000a0: e3d8 0bbc 61bf 9abe 0fdb 00bd 4b5a 85be
000000b0: ed17 a3be e72b 71bd 093c 8bbe 10ff f33d
000000c0: d121 353d 1d9e dabd f060 a8be 3360 74be
000000d0: 8c75 15bd 849f a83e 2406 71bd 5734 debe
000000e0: 0aa9 17bf d5ba 46be e736 91bd 3194 09bf
000000f0: b648 923e 00b8 6cbf 5009 12be fcb8 a2bc
00000100: 1a51 64be 09a1 96be e42e 13bf 0d46 623e
00000110: ab6b 1abf 287b 543e 91bb 00bf 5a93 03be
00000120: 42aa 9dbc 5887 8dbc 0335 8ebe 4693 8d3d
00000130: f24b 3bbe e69c 52be 548d d2be 83f8 1bbf
00000140: ac51 96bd 5185 fbbc 196e 1e3e 2d87 41bf
00000150: 8e40 dabe 9b8f 52be 4b44 b33d 9b90 05bf
00000160: c98f 683e d463 953e f94a 05bf 045f 3abe
00000170: ef84 e8be c862 49be 3a26 8dbe c56b a63c
00000180: 51f1 74be ea04 ba3d 0d3c 73be eb1e d0be
00000190: 6b23 663c 3857 9bbe c887 0c3e df2f fdbe
000001a0: b0c9 adbe c9a7 3abe e840 86bd 5b5a 96be
000001b0: 2b9b 6d3e f187 26be 14ad db3b c79e a2bc
000001c0: be1e dcbd 69b2 363d 7c3a e5be b079 60bf
000001d0: 1e54 afbe d092 813d f0b3 953c d37f f3be
000001e0: 75a2 20bd 281b 283d 8a07 45bf 05b9 08bf
000001f0: b005 9e3e 7a72 933e 179b 9fbe 117b 663e
00000200: 1e53 95be 452f 69bf af2d eebd fd82 a4be
00000210: db68 2d3d 002c 40be c3e7 863d 3329 d7bc
00000220: 257a 59be af78 8abe caef 943e 60c1 fbbe
00000230: 8471 72bd 64c0 5ebe 6c57 cc3d 1a3e a4be
00000240: 39f6 54bd 67f2 2b3e f83d 35bd 0c34 2d3d
00000250: 9977 18bf 0907 1cbe 50c7 e33c a5a7 adbe
00000260: f124 95be e979 adbc ce3a 2dbe 2490 1ebe
00000270: 0a0f 0bbf 8a5f a2bf 0af2 45be dc05 01bf
00000280: 3abc babc 1ad7 02bf be9a aebf 236b 16be
00000290: 5d30 41bf d6f7 593d d783 91be 91b1 24be
000002a0: 51bd 19bf 9c3b d7be ff13 a23e af82 9ebe
000002b0: eb97 6cbf 2f92 b0be f8e1 a3be ff85 3b3e
000002c0: 8c1a e43c 229f a1bf 50fa f6bd e6fc b7be
000002d0: 6cf7 233e e1e3 0fbe 39a6 9dbf e897 43be
000002e0: 47db 6d3d ca4f 42be e321 d53b 9ec4 2cbe
000002f0: 6171 513e 43ca 873e 2973 7f3e 09af e5bd
00000300: 5502 1fbf 1d73 efbe 72d4 f9bd 927e 3dbd
00000310: 5fdf ce3d 15cb 6cbe 9769 76bd fce0 50be
00000320: c545 c23e 45c5 76be 3ad9 aabe d03e 04bf
00000330: fc56 4fbf c0ba 09bd 1ef8 c8be 1930 ec3d
00000340: 0bd9 793e cdd8 ffbe eec3 2cbe 848b ac3c
00000350: 192e 693d 7c62 4c38 c8cf 293e 1f2e 1c3e
00000360: 48e7 c2be 45a8 abbe 1f8d 28bf 8d07 72bd
00000370: edf6 e33c 3be3 d63c 83fb 783d 1335 c13c
00000380: b7fd 0f3d 4988 8cbd 4b02 69be 491c f8bd
00000390: f040 053e 2fd4 923d 3c44 9d3e def0 ce3e
000003a0: 84d7 ea3d 3ef3 3b3d af1d 9b3e ec06 e83d
000003b0: 0594 7abc 3ca6 c43c 8b06 3a3d b10f e23d
000003c0: 0f1b 1cbe 374b 95bd df45 aa3d 2df4 54bd
000003d0: b23d 163d 2faf ee3d f38f 113e 4d5f 583d
000003e0: 3940 94bd 3669 cf3a 2df3 a73d 333a 0d3d
000003f0: f573 113e 6db9 743d eb01 5bbc 4f44 08bd
0.015289514 0.100620545 0.02059885 0.07803716 0.06378559 0.17685574 0.12663737 0.1522939
0.23224051 0.14838505 -0.03815416 0.0148041155 -0.03344719 -0.053121988 0.02742011 0.10650669
0.13783415 0.07119751 0.12763113 0.070939615 0.06890345 0.13917568 0.16322346 0.22793639
0.0414883 0.023571944 0.085614726 0.09841924 0.17111558 0.046760548 0.46169364 -0.81689286
-0.89795506 -1.0764948 -3.5065556 0.0012750238 0.0008123762 -0.44392487 0.36327517 -0.29282925
-0.008535597 -0.30224136 -0.03145891 -0.2604545 -0.3185419 -0.05887976 -0.2719424 0.11913884
0.044221703 -0.10674689 -0.32886457 -0.23864822 -0.036489055 0.329342 -0.058843747 -0.43399307
-0.5924231 -0.19407208 -0.0709055 -0.5374175 0.285711 -0.9246826 -0.14261365 -0.019863598
-0.22296563 -0.29419735 -0.57493424 0.22097035 -0.6032054 0.20750105 -0.50286204 -0.12849179
-0.019246224 -0.017276451 -0.2777482 0.06912856 -0.1829069 -0.20567665 -0.4112345 -0.60926074
-0.073397964 -0.030703219 0.15471686 -0.75596887 -0.42627376 -0.20562594 0.0875326 -0.52173775
0.227111 0.29177725 -0.52067524 -0.18200308 -0.4541392 -0.19666588 -0.27568227 0.02031506
-0.2392018 0.090829685 -0.23753376 -0.4064859 0.01404653 -0.3033998 0.13723671 -0.49450585
-0.33942938 -0.18228067 -0.06555349 -0.2936581 0.23203723 -0.16262795 0.006703982 -0.019851102
-0.10748051 0.04460374 -0.44771183 -0.8768568 -0.34243864 0.063268304 0.018274277 -0.4755846
-0.03921743 0.041041523 -0.7696463 -0.5340732 0.30863714 0.28798276 -0.31173012 0.22507884
-0.29164976 -0.9108775 -0.11629807 -0.32131186 0.042336326 -0.18766785 0.06587174 -0.026264763
-0.21238 -0.270452 0.29089195 -0.4917097 -0.05919029 -0.21753079 0.09977612 -0.3207863
-0.05199263 0.16791688 -0.04424855 0.042285964 -0.5955749 -0.15237059 0.027805 -0.33916965
-0.29129747 -0.021176295 -0.16916963 -0.15484673 -0.5431982 -1.2685406 -0.19330612 -0.50399566
-0.022794832 -0.5110947 -1.3640974 -0.14689307 -0.7546442 0.05321487 -0.28420898 -0.16083361
-0.600545 -0.42037666 0.3165588 -0.3095908 -0.9241931 -0.3448653 -0.32008338 0.18312834
0.02784469 -1.2626688 -0.12059462 -0.35935134 0.16012353 -0.14051773 -1.2316352 -0.19100916
0.058070447 -0.1897575 0.0065042838 -0.16871879 0.20453407 0.265215 0.24946274 -0.11215026
-0.62112933 -0.46767512 -0.12198724 -0.046263285 0.101011984 -0.23124345 -0.060159292 -0.20398325
0.37943855 -0.2409869 -0.33368856 -0.51658344 -0.809921 -0.033625364 -0.39251798 0.115326114
0.24399202 -0.49970093 -0.16871616 0.02106262 0.056928728 4.872911e-05 0.16583169 0.15251969
-0.3806708 -0.33526817 -0.65840334 -0.059089232 0.027827704 0.026231399 0.060786735 0.023584878
0.03515407 -0.06861932 -0.22754781 -0.1211477 0.13013053 0.07169377 0.3071612 0.40418142
0.114668876 0.04588627 0.30296084 0.11329445 -0.01529408 0.024005048 0.045416396 0.11038149
-0.15244697 -0.07289737 0.08314108 -0.051990677 0.03667993 0.11654507 0.14215069 0.05282526
-0.07238812 0.0015824202 0.08200679 0.03447933 0.1420439 0.05974715 -0.0133671565 -0.03326827

fc1.bias f4 [64]
00000000: 8d78 d33d 39c6 ccbd 3d11 d3be 0bec 23be
00000010: c2d0 dc3d a39b 45be 0f0d 15bc 06e6 8f3d
00000020: 238e ed3d 6b52 c8be 22fa 1bbc dbb4 263e
00000030: f454 c53d 3b55 113e 319c 96be f73f 41bd
00000040: 512a 55be 59a0 da3c 2215 2cbe f24b 20be
00000050: ec02 743b f52e ecbc a502 6c3e 45b6 d5bd
00000060: 1fff f6bd a8ff 353e 99b1 32be 5af9 19bd
00000070: 232e 1a3e f015 91ba ec28 adbc 2bd4 9abd
00000080: ea44 203e b57c f4bd c978 95be 4132 c83d
00000090: b28f 99be f31a 39bd 0464 40be 46e1 97be
000000a0: eed3 73be 86dc 853d bf6b 1abe 3f58 d33e
000000b0: 6cfd 26be 92a9 77be 3cde acbd a929 a4be
000000c0: 25bc b0be 0407 ecbc 335d 8fbe 06f1 28be
000000d0: 81e7 2abe befc d3bd 124a 13be 5462 8a3d
000000e0: 160d 8f3d 6e65 83bd dba6 69be 56f6 1cbe
000000f0: c63e 1dbd ce5c 2a3d 8ac0 563e 39f5 0fbe
0.103257276 -0.099987455 -0.4122409 -0.16008012 0.10782005 -0.19297652 -0.009097352 0.07026295
0.11599376 -0.3912538 -0.0095200855 0.16279928 0.09635344 0.14192669 -0.2941604 -0.047180142
-0.20816924 0.026687788 -0.16804937 -0.15653971 0.0037233187 -0.028830985 0.23047884 -0.10435156
-0.12060379 0.17773306 -0.1745056 -0.037591316 0.15056662 -0.001106916 -0.021137677 -0.07559999
0.15651289 -0.119378485 -0.29193714 0.0977521 -0.29992443 -0.045191716 -0.18788153 -0.29664057
-0.23811314 0.06536202 -0.15080164 0.41278264 -0.1630761 -0.2418578 -0.08440825 -0.32063034
-0.34518543 -0.028811939 -0.28000793 -0.16498193 -0.16689874 -0.10350941 -0.14383724 0.06757036
0.06984918 -0.064158306 -0.22817557 -0.15328345 -0.038389944 0.04159241 0.20971885 -0.14058389

fc2.weight f4 [64, 64]
00000000: 2767 213e e587 91bf 1fb7 333e ba88 e2be
00000010: 959e 09bf c865 903e 5807 3bbe 5783 d1be
00000020: 4103 10bf 1244 f6bd 001b 21be 469a 58be
00000030: 2281 36bf 2ec3 ea3d 7ce3 23be 1334 9ebf
00000040: a8af 13bd 0a7e 6dbf 317b 24bf f8b3 75bc
00000050: 231b 5e3e aecb 0bbf 7a80 1a3e 0474 83be
00000060: 9c43 a33d 39ca 05be 44b6 82be 0e86 5dbf
00000070: 6028 ffbc 61d5 d23d 5e4e 253e 98e7 52bc
00000080: f34d 3b3e e68a 15bf 67a3 893e 395f 8f3e
00000090: 3b83 86bf 4238 0e3d c792 c23e 1899 f6bd
000000a0: 1f03 0e3d 7ae8 27be f450 aabd d453 dcbd
000000b0: 7657 443a 72b4 8ebf 6445 2ebf d857 de3d
000000c0: 8d8a 98bd a52b 5dbe 785b 14bf 7d13 f3be
000000d0: 3dc6 babe eb87 1fbf b32f 0f3e a446 423c
000000e0: 8ae6 463e 1cc3 f4be 515b 09bf 059d c33d
000000f0: d1b1 893e 90e8 0e3e 9c83 2c3f 224b 0abf
00000100: ada9 f2bd 7dc2 563e b09a 3e3e 4ae3 d63c
00000110: c3ee bbbe d243 b73e ebf4 06be 0877 1ebc
00000120: 3cb0 093e cfca d9bd 9568 b33e 7de1 5f3d
00000130: bb95 81be 99d0 13be 9cd4 883e 6a75 fa3d
00000140: 68bf bd3e 9239 abbe 8f0a fdbd de14 edbd
00000150: a15c dabe 2d3f dd3d e8b5 80bc 573a 663d
00000160: 804b 54be 8511 1bbf afab 09be 8320 f7bd
00000170: a17f 0c3f 887a de3d 2840 a73e f6ba 8b3e
00000180: 11f1 a73e 9617 873d a9c7 0a3e 8b64 94be
00000190: d5ba f1bd abc3 683e 1dd7 5f3f ba0c 21bb
000001a0: 5ff2 ecbe b408 953d 1625 d9bd 3f09 75bd
000001b0: bbf5 88bd 99e8 a83d 27c6 8e3e d8e8 82bd
000001c0: 4964 b0be 9c04 fabd cce1 1c3e 3220 9c3e
000001d0: 90e8 e13d fc79 afbe 513b a0be cfa0 1c3f
000001e0: 1c3b 03be ce97 ddbe 20dc 8e3e 9a94 6abb
000001f0: 6998 0fbe 899b e4bd 9e4f b2bd 90a3 e33c
00000200: 316a 52bf b152 9bbe 888d 903e c85c 43be
00000210: c28f f8bd 9837 273e 71f3 8abe fa87 12bf
00000220: f698 7d3c 1e86 9bbe 8f17 66be 5ce1 c13e
00000230: faa3 9fbe 493f 9abe 5d0d 0fbe 2f29 4abe
00000240: d4b5 b63e 7a4d 0ebf 28c7 0d3d 376c c1be
00000250: 823a 9c3c 2091 fbbe 27dc 033e 92cf 0d3f
00000260: a4d3 f5bd 22ad 0fbf c42f 39be 31f8 b03e
00000270: 6f65 e3bd 2cd5 5ebe fddd 21bf e641 f0be
00000280: 9223 1f3f e23f 0dbf 3ee5 89bd 25c8 013f
00000290: 0ddb 583e 9a96 b23d 35e4 3c3e c09c 0abf
000002a0: 9665 043f 3b01 bd3c c32c 133f 8129 7abe
000002b0: 467e 123f ea5f 113c a308 c3be 4c66 babc
000002c0: 9e69 1ebb 93db 943e bc65 31be ad75 7bbe
000002d0: 5ca1 ccbe 91d2 903e 9336 09be 9c31 99be
000002e0: 7f09 d7be 24b3 d3bc 2086 1e3c 099d c33e
000002f0: 4598 e6be e7d7 263e 8729 663e 0827 723e
00000300: 5ca4 90be 93f4 9abe 5f32 80be caf8 6dbe
00000310: 55b5 c7be 8646 16be d5e2 7bbe 6f6f 2f3e
00000320: 108f c1be 08ca cbbe b32d 13bd c7e9 3e3e
00000330: 9933 33be 8c03 953e 29a6 3d3e df5c 93be
00000340: 4eeb ce3d c3b4 7cbb e50b 61be 4489 b43c
00000350: c7ca 98be c4af dabe 25c6 bf3b db42 e33e
00000360: a8b8 853e 3554 31bf 43b9 3c3e 92c4 62be
00000370: cf83 5a3e dac7 763a 37c8 b53c 6213 02bf
00000380: c424 cebe 21fd 42bf 53f1 02bf 92d7 053f
00000390: 0cfc ecbd 3b8f b83e 888d 42be bfcd 01bf
000003a0: f218 42bd 1524 bdbd fa69 d8bd 78ee 88bd
000003b0: 1552 f9bd 2d9b da3d ab53 06be 4a84 6cbe
000003c0: c07d 2fbe 2f51 70bd a9ce bdbe 28ae 53be
000003d0: bfa0 22bf 43c9 98bf 9780 653d c89c a83d
000003e0: 3dc6 83bf e2ee 4c3e 8314 8dbe 0a10 0bbf
000003f0: 35f6 b8bd da05 9e3e 9820 71bf b0a5 33bd
0.15762006 -1.1369597 0.17550324 -0.4424494 -0.537576 0.28202653 -0.1826452 -0.40920517
-0.56254965 -0.12024702 -0.15732956 -0.211526 -0.7129079 0.11463009 -0.16004747 -1.2359642
-0.03605619 -0.92770445 -0.64250475 -0.014996521 0.2169004 -0.54607666 0.15088072 -0.2567445
0.0797188 -0.13065423 -0.25529683 -0.86532676 -0.031147182 0.10294605 0.16143176 -0.012872599
0.18291454 -0.5841507 0.2688248 0.28002337 -1.0508798 0.03472162 0.38002607 -0.12040919
0.034670945 -0.16397277 -0.08316222 -0.107581764 0.00074898393 -1.1148818 -0.6807463 0.108565986
-0.074483015 -0.2159868 -0.5795207 -0.47475806 -0.3647937 -0.6231677 0.1398304 0.011857662
0.19423881 -0.47805107 -0.5365496 0.095514335 0.26893476 0.13955903 0.6738832 -0.54020894
-0.11848769 0.20972629 0.18613696 0.026231427 -0.36705598 0.3579393 -0.13179366 -0.009671934
0.13446134 -0.10634386 0.35040727 0.0546584 -0.25309548 -0.14435042 0.26724708 0.12229426
0.37060094 -0.3344236 -0.123555295 -0.11576246 -0.42648795 0.108030654 -0.01571174 0.05620798
-0.20731926 -0.6057361 -0.13444398 -0.12066748 0.54882246 0.10863215 0.32666135 0.27291077
0.32801107 0.065962955 0.13552727 -0.28982958 -0.118032135 0.22730891 0.8743761 -0.0024574236
-0.46278664 0.072770506 -0.10602777 -0.05982327 -0.06687494 0.082474895 0.27885553 -0.06392068
-0.34451512 -0.122079104 0.1532051 0.30493313 0.11030686 -0.34272754 -0.31295255 0.61182874
-0.12815517 -0.4327988 0.27902317 -0.003579414 -0.14022984 -0.111624785 -0.08706592 0.027787954
-0.82193285 -0.30336526 0.2823298 -0.19078362 -0.121367946 0.16329801 -0.27138856 -0.57238734
0.015478363 -0.3037576 -0.22469924 0.37867248 -0.31179792 -0.30126408 -0.13969941 -0.19742273
0.356856 -0.5558697 0.03461376 -0.37777874 0.019070867 -0.4913416 0.1287695 0.5539485
-0.12003258 -0.56123555 -0.18084627 0.34564355 -0.11103331 -0.21761006 -0.6322935 -0.46925277
0.6216365 -0.551756 -0.067331776 0.5069602 0.21177311 0.08720131 0.18446429 -0.5414543
0.5171751 0.023071876 0.57490176 -0.24429895 0.5722393 0.008872965 -0.38092527 -0.022753857
-0.002417184 0.29073772 -0.17323965 -0.24556608 -0.39966857 0.2828565 -0.13399725 -0.2992066
-0.41999432 -0.025842257 0.009675533 0.38205746 -0.45038047 0.16293298 0.22476779 0.23647702
-0.28250396 -0.3026472 -0.2503843 -0.23239437 -0.39005533 -0.1467534 -0.24598248 0.17132352
-0.3780446 -0.39802575 -0.035932254 0.18643866 -0.17500152 0.2910427 0.18520416 -0.28781793
0.101034746 -0.003855989 -0.21977194 0.02203811 -0.29842207 -0.42712224 0.005852478 0.44386944
0.26117444 -0.69269115 0.18430047 -0.22145298 0.21339343 0.00094139355 0.022190196 -0.50810826
-0.40262425 -0.76167494 -0.5114948 0.5228206 -0.115715116 0.36046776 -0.18999302 -0.5070457
-0.04738707 -0.09235398 -0.105670884 -0.06686109 -0.12173859 0.10674129 -0.13117854 -0.2309734
-0.17137814 -0.058671173 -0.37071732 -0.20671904 -0.6352653 -1.193642 0.056030836 0.08233029
-1.0294873 0.20013002 -0.27554712 -0.5432135 -0.09031335 0.3086384 -0.9419036 -0.043859184

fc2.bias f4 [64]
00000000: 0c00 adbe 0b28 c93d 86d5 533d 3aec 37be
00000010: 3a1c 843e a188 ddbd dba7 37be e31e e53b
00000020: c8e9 c4bd 5f9d c43e 70bd 5fbe ba8a c63e
00000030: ca84 473f 58c2 303b 00ce c1bd 97d2 13bc
00000040: 7b6a 0cbe 0f1b fb3d 99c1 b0be 997b 6d3e
00000050: a1b2 c13e 4712 853f e8b8 21be d972 3dbd
00000060: 6bd7 31be 398e 34be 8527 b4bb 9ba4 74be
00000070: ab90 04bd d27a 643d f998 9abd fca6 7b3c
00000080: 99e5 203e 9b98 173f fddf 88be 0d0f 813e
00000090: 809f 28be 3365 e8be 81b6 763f 9066 8d3d
000000a0: 5485 29be bb22 7b3f f343 4e3f c91f 90be
000000b0: e4e0 613e b3c9 95bd fd8f 333f f68f 13be
000000c0: d9fe 0d3d 11c1 993d af94 ae3d 45dc a0bd
000000d0: 3ad9 663e 1501 57be b5a2 0a3f e7c1 cbbb
000000e0: c3a4 70be c03d 82be 19fc 233d 695c 5bbe
000000f0: 654e a1be 373f 393f a60f 1e3e d234 29be
-0.33789098 0.09822091 0.051717304 -0.17961207 0.25802785 -0.108170755 -0.17935126 0.0069922074
-0.09614903 0.38401315 -0.21849608 0.38777715 0.77936995 0.0026971307 -0.094631195 -0.0090223765
-0.13712494 0.122610204 -0.34522703 0.2319168 0.37831596 1.0396203 -0.15793192 -0.046252105
-0.17367332 -0.17632379 -0.005497875 -0.23890917 -0.03236453 0.055781193 -0.075487085 0.015359636
0.15712585 0.5921723 -0.2673339 0.25206795 -0.16467094 -0.4538971 0.9637223 0.06904328
-0.16554767 0.9809987 0.8057243 -0.2814925 0.22058445 -0.07313862 0.70141584 -0.14410385
0.03466687 0.075075276 0.08524453 -0.07854513 0.22543803 -0.20996507 0.5415452 -0.0062181833
-0.23500352 -0.25437737 0.04003534 -0.2142197 -0.31505123 0.72362083 0.15435657 -0.16524056

fc3.weight f4 [4, 64]
00000000: 85fe 38be cc86 613e ec19 cc3c 924b 60be
00000010: 4a00 363e a170 643e 88c2 3cbe 077b b13c
00000020: d6a1 823e f123 173e 6546 91be b80f 253e
00000030: 12ef 623e a8b2 ba3e 9c40 17bd 2642 b5bb
00000040: 8c40 91bd 602e 683e 1cc1 5cbe a257 f73d
00000050: a277 913d 23b5 a73e b326 8b3e b598 1f3d
00000060: 9a13 26bf fa51 523d d82b 84be f0f0 0dbe
00000070: b910 253f 803f ccbd 7977 80be 27f7 de3d
00000080: d3b8 bf3e 21da 633e 7324 9ebe e8c8 843e
00000090: 56a7 ca3e f3f4 00be b452 973e b3dc a03e
000000a0: e473 f53e c6b6 8e3e f5cb 6e3e 8487 03be
000000b0: 56c1 bf3e f82a d5be 1bda 733e 63d0 683e
000000c0: 7852 85bd 82a6 563e 0c88 eb3c 9bb6 63bd
000000d0: 115b 023e c65b 6dbe 1f3f 903e d30e 6c3e
000000e0: 3535 17bf 5e45 83be a3f3 0c3e f9b3 363e
000000f0: 4fe1 97be 38af 9a3e 7eb0 c83e e36f 983e
00000100: 0a8e 8c3c 88b4 593e 86b6 82bb 84ac 7bbe
00000110: 4ba9 383e f85b 843e 6a45 4bbd a409 eb3e
00000120: 7b70 e4be 68e8 983d cfd1 88be 1eed 663e
00000130: 39a5 453e 3c9f a73e 2cc7 7f3b a647 8c3d
00000140: a133 01b9 6c5c 8e3e ec32 84be b5bd b03d
00000150: adba aa3d 4b0d a43e f02f 2ebf 0247 45be
00000160: 23e3 ca3e ca3f 23be 4105 3b3d 166c 45be
00000170: 34be fc3e d583 84bc 0a7c 1ebe 6023 363e
00000180: b82b be3e c1a6 853e ba51 b2bd 884a 413e
00000190: 00c6 85bd 7413 00be 3ea1 903e ead4 163f
000001a0: 6cd6 fdbe 1e53 9e3e 8d7a 853e c818 01be
000001b0: 2722 9c3e cb6b 9dbe aa46 8d3e 4fad d3be
000001c0: 5dc3 afbd e1be 5a3e 579b ecbc d3b8 6abf
000001d0: b06e 113e a512 983e f7ae af3e 0c6f 783e
000001e0: af32 b9bd 23e0 7ebe 42d2 903a ec89 70be
000001f0: 046f 71bd c3b8 333e 9388 d53e 353c 143e
00000200: 0ad0 7dbe 84f2 c13e af5b 053f f515 163e
00000210: 0ccd 823e 2f0d ee3e 69c3 e7be 4754 9fbe
00000220: c2f3 293f 0e62 ae3d b33a a8be 877b 9a3c
00000230: ba74 853e 6918 48bc 6c0a b2bd c13b 2e3e
00000240: 0c60 c33e 84ff a23e f56d c83e aa7a 013e
00000250: fdc5 a73d 4dac a53e 9b27 8cbd bf45 663e
00000260: 000f f93d a456 1fbd 0cf3 c4be 8530 24be
00000270: 2281 063f 2b7b 3b3e 59c6 90bd c541 22be
00000280: 7b9a 243e ff1d b03d c506 72bb 842d 9b3e
00000290: 392f 063f 0cd9 87be 7255 a53e 9dc9 1d3f
000002a0: 5f93 2bbe d1a3 983e e79a b13e c477 bfbc
000002b0: 5c7a 973e 7ee8 21bf 9e24 703e 6010 363e
000002c0: 9648 38bf 8667 0fbd 0d5e fdbd 6181 5aba
000002d0: 071f 2a3e eb54 1a3e 7f39 593e 7471 333e
000002e0: 0a61 1f3e d339 58be 0259 a13e e09b eebd
000002f0: 33bf a6bd 5159 933e 2962 cb3d db4b aebe
00000300: 1ede 9abd 19bc 713e 65af 97be 5bd3 8cbd
00000310: 99f2 1cbc 5677 b03e 2ea6 debe 7635 143f
00000320: 9dd7 5fbb 6126 903e c3e9 61bd 2a7c 803c
00000330: bd09 973e 37bf 6abc d1a6 d83c 4a18 91bd
00000340: edb3 683e d5ad 8f3e 14c5 923e 59e9 913e
00000350: f710 503e 19ea ae3e e342 0cbf 4a41 0dbf
00000360: 8de7 16bc 5589 2c3e 706c 76be db2e 2e3e
00000370: aa95 d73e 8d5a a33d 2de1 0cbe aa0a 813d
00000380: 1836 883e 8a40 143e 129f 6bbd 1058 ab3e
00000390: 9d23 f3bd 07a3 8bbe dc30 b13e d052 d1bd
000003a0: 16b9 023f 124e ad3e 1765 903e af72 6bbe
000003b0: e80c 773e 402b 283d 5801 2f3e 8268 ad3e
000003c0: 4de8 7cbe 35d1 9b3d 7991 6e3e 234a b8be
000003d0: ebbc 9d3d 0bf4 b4ba 78ec 873e beb1 1c3e
000003e0: 09c7 63bf d4ff 04bf bfb2 333e 852c 9abd
000003f0: bcd8 7e3d bce3 c63d f2c9 8d3e d332 ccbe
-0.18065841 0.22024077 0.024914704 -0.21903828 0.17773548 0.2230859 -0.18433583 0.02166511
0.25514096 0.14759804 -0.2837402 0.16119277 0.2216151 0.3646443 -0.03692685 -0.005531567
-0.070923895 0.2267394 -0.2155804 0.120772615 0.07102896 0.32755384 0.27177963 0.038963992
-0.6487366 0.05134771 -0.258147 -0.13861442 0.6447864 -0.09973049 -0.2509115 0.10886984
0.37445697 0.22251178 -0.30887184 0.2593453 0.39580792 -0.1259344 0.29555285 0.3141838
0.4793998 0.2787382 0.23319991 -0.12844664 0.3745219 -0.41634345 0.2381367 0.22735743
-0.0650987 0.20961955 0.028751396 -0.055594068 0.12730052 -0.2317954 0.28173158 0.2305253
-0.5906556 -0.2563886 0.13764815 0.17842092 -0.29664084 0.30211806 0.39197153 0.29772863
0.017157573 0.21260273 -0.0039890436 -0.24577528 0.1803333 0.25851417 -0.049626745 0.45905793
-0.44617066 0.07466203 -0.2672257 0.2255139 0.19301309 0.32738674 0.0039028628 0.06849603
-0.00012321632 0.27804887 -0.258201 0.08629934 0.08336387 0.32041392 -0.68041897 -0.19265369
0.39626417 -0.15942302 0.045659307 -0.19279513 0.49363863 -0.016176144 -0.15477005 0.17786932
0.3714273 0.26103786 -0.08706994 0.18876088 -0.06531906 -0.12507421 0.28248018 0.5891863
-0.49577653 0.30922788 0.2607006 -0.1260711 0.30494806 -0.30746302 0.27592975 -0.4134316
-0.085821845 0.21361877 -0.028882666 -0.9168827 0.1420238 0.29701725 0.34313175 0.24261111
-0.0904287 -0.24890189 0.001104899 -0.23490113 -0.058943763 0.1755095 0.4170576 0.14476092
-0.24786392 0.37880337 0.52093023 0.14656813 0.25547063 0.46494433 -0.45266274 -0.31118986
0.6638757 0.08514796 -0.32857284 0.01885773 0.26065618 -0.012212851 -0.08693394 0.17014982
0.38159215 0.31835568 0.3914639 0.12644449 0.0819206 0.32358018 -0.06843492 0.22487544
0.12161064 -0.038900986 -0.3846668 -0.16034134 0.5254079 0.18308704 -0.07069082 -0.15845402
0.16074555 0.08599471 -0.0036930304 0.30308163 0.52415806 -0.2653278 0.32291752 0.6163576
-0.16755436 0.29812482 0.34688494 -0.023372538 0.2958554 -0.6324538 0.23451468 0.17779684
-0.7198576 -0.035010837 -0.123714544 -0.0008335319 0.16613398 0.15071456 0.2121334 0.17523748
0.15564361 -0.21115808 0.3151322 -0.116508245 -0.08141937 0.2877908 0.09930832 -0.34042248
-0.07561897 0.2360691 -0.29626003 -0.0687625 -0.009579324 0.34466046 -0.4348616 0.57894075
-0.0034155615 0.2815428 -0.055154573 0.015684206 0.29499617 -0.014327816 0.026446732 -0.07084711
0.22724886 0.2806231 0.28665984 0.28498343 0.20318972 0.34162977 -0.5478956 -0.5517775
-0.009210479 0.16849263 -0.24064803 0.17010061 0.42106372 0.079762556 -0.13757773 0.06300862
0.2660377 0.14477745 -0.05752475 0.33465624 -0.11872027 -0.27272817 0.3460759 -0.10220873
0.5106367 0.33848625 0.28202125 -0.22992967 0.24126017 0.04105687 0.17090356 0.33868796
-0.2469799 0.076082624 0.23297681 -0.35994062 0.07702049 -0.0013805641 0.265476 0.15302178
-0.8897558 -0.5195286 0.17548655 -0.07528023 0.062218413 0.09711406 0.27693135 -0.39882526

fc3.bias f4 [4]
00000000: 6673 2d3f 3b81 103f 03a2 e93e 4f72 033f
0.6775421 0.5644719 0.45631418 0.51346296
