checkpoint_dueling_nw.pth (torch_old, 30312 bytes, 9 tensors)

fc1.weight f4 [64, 37]
0	0xbb8fe68b	-0.0043914965
1	0x3c96d085	0.018409977
2	0xbc935fe7	-0.017990066
3	0x3c210938	0.009828858
4	0xbdba0bc8	-0.09084278
5	0xbd624d37	-0.05524942
6	0xbba38cdc	-0.004991157
7	0x3e2d6a37	0.16935049
8	0x3d34a997	0.044107046
9	0xbdfb9f97	-0.12286299
10	0x3e9339f6	0.28755158
11	0xbec0094c	-0.37507093
12	0xbf578295	-0.8418363
13	0xbf26ee21	-0.65207106
14	0xc0179c38	-2.3689098
15	0x3ca88aa7	0.020573927
16	0x3ce8dc64	0.028425403
17	0x3d9ae858	0.07563847
18	0x3d80bc7f	0.06285953
19	0xbc3b3ae8	-0.011427619
20	0x3cd005f5	0.025393466
21	0x3dd6f86e	0.10496603
22	0x3e428ca1	0.18998958
23	0x3e8ba793	0.27276286
24	0x3ea67c27	0.32516596
25	0x3de831bd	0.11337612
26	0xbc04078a	-0.008058438
27	0x3d30267b	0.043005448
28	0xbcbc2517	-0.022966905
29	0x3a940309	0.0011292408
30	0x3cb15f4b	0.021651885
31	0xbca6e901	-0.020374777
32	0x3d0fdeca	0.035124578
33	0x3da7b026	0.081878945
34	0x3e0e62cc	0.13904876
35	0xbbf9e3e8	-0.0076260455
36	0x3c3ae76a	0.0114077125
37	0xbd0157dd	-0.031577934
38	0x3e161da5	0.14659746
39	0xbdce5799	-0.10075302
40	0xbe17a0d3	-0.14807443
41	0xbda25af0	-0.07927501
42	0x3d468da2	0.048474915
43	0xbd36fb3b	-0.044673186
44	0xbe32028a	-0.17383781
45	0xbee2eeb1	-0.44322732
46	0x3ea89bfb	0.32931504
47	0xbe2f38ae	-0.17111465
48	0x3d914ed2	0.07095112
49	0xbe2428bf	-0.16031168
50	0xbcfc0be6	-0.030767392
51	0x3e542673	0.20717792
52	0x3df8a6a8	0.12141162
53	0xbc74bf1d	-0.014938143
54	0x3d3ded2e	0.04636877
55	0xbf216868	-0.63049936
56	0xbfb2d88f	-1.3972338
57	0xbe13cefe	-0.1443443
58	0xbe5945c1	-0.21218015
59	0xbe81a96f	-0.2532458
60	0x3e1b3455	0.15156682
61	0x3df85971	0.121264346
62	0xbed50851	-0.41607907
63	0x3ed302a7	0.4121296
64	0xbdbc09e4	-0.09181574
65	0xbf1a1b8a	-0.6019827
66	0xbf2263ff	-0.6343383
67	0xbe473fcf	-0.19457935
68	0x3e499ce5	0.19688757
69	0xbe1a92c3	-0.15095048
70	0x3e2bd626	0.1678091
71	0xbf09863b	-0.53720444
72	0x3df5b6e8	0.11997777
73	0xba45055a	-0.0007515751
74	0xbe5e411f	-0.21704529
75	0x3e41a395	0.18910058
76	0x3e2ea8ce	0.17056581
77	0xbe97b557	-0.2963054
78	0xbe63dcd9	-0.22252215
79	0xbeb5aa87	-0.35481665
80	0xbefd833d	-0.4951419
81	0x3ece08b6	0.4024102
82	0xbf594ce7	-0.8488297
83	0xc051996f	-3.2749898
84	0xbcc24078	-0.023712382
85	0xbe05959f	-0.13045357
86	0xbbf1ef6b	-0.007383277
87	0xbe89f801	-0.26947024
88	0xbe111882	-0.14169505
89	0xbdb389ee	-0.087665424
90	0xbd481b61	-0.048854236
91	0xbdb2956c	-0.08719906
92	0xbc88f981	-0.016720535
93	0xbcdbab23	-0.026815003
94	0xbe988bb4	-0.29794085
95	0xbd89abdf	-0.06722235
96	0xbbab4306	-0.0052264957
97	0xbe446bc3	-0.19181733
98	0x3c11ebb8	0.008906297
99	0xbe8cd1e1	-0.27503875
100	0x3e0273a2	0.12739423
101	0x3e8b17a9	0.2716649
102	0xbf0788b1	-0.5294295
103	0xc03d1d4e	-2.9549136
104	0xbe09b21b	-0.13446848
105	0xbf25c27c	-0.64749885
106	0xbd0206b3	-0.03174467
107	0xbeeee2d8	-0.46657443
108	0xbe924b91	-0.28573278
109	0xbc8138de	-0.015774187
110	0x3db3a81d	0.087722994
111	0x3d9bac36	0.07601206
112	0x3ddc0c4a	0.107445315
113	0xbe7ac78f	-0.24490188
114	0x3d72add6	0.059247814
115	0xbf3a734e	-0.7283219
116	0xbdff362b	-0.124615036
117	0xbc8dbbaa	-0.0173014
118	0x3e893b2e	0.26802963
119	0xbd2f9456	-0.042866074
120	0xbd8e4310	-0.06946385
121	0xbe054b84	-0.13017088
122	0xbd7912e0	-0.060809016
123	0xbe13d10c	-0.14435214
124	0xbe2b7ed8	-0.16747606
125	0x3e79c941	0.24393179
126	0xbe55b115	-0.20868333
127	0x3e6cf2a4	0.23139435
128	0xbe4048fa	-0.18777838
129	0xbf0988f4	-0.537246
130	0xbf2ca5d3	-0.6744053
131	0x3d9514d0	0.0727936
132	0x3e6e7cdf	0.23289822
133	0xbefa95ef	-0.48942515
134	0xbf188424	-0.5957663
135	0xbe28e5f5	-0.16493972
136	0x3dceb29d	0.100926615
137	0xbd1640f8	-0.036683053
138	0x3de4daa2	0.111745134
139	0xbf4b6c58	-0.79462194
140	0xbf3f7d0b	-0.74800175
141	0x3eb8efbd	0.36120406
142	0x3e1e6173	0.15466861
143	0xbf53cbb6	-0.82732713
144	0xbef1f866	-0.47259825
145	0xbe17ccab	-0.14824168
146	0x3e121046	0.1426402
147	0xbd111580	-0.035420895
148	0xbd9cbd31	-0.07653273
149	0xbe3eb1c5	-0.18622501
150	0xbead36f7	-0.33830997
151	0xbe7abd29	-0.24486221
152	0x3d44c41f	0.0480386
153	0xbcd1bb0e	-0.02560189
154	0x3e1f4229	0.15552582
155	0xbe42af85	-0.19012268
156	0xbddb2d66	-0.107020184
157	0x3e2bcd70	0.16777587
158	0xbd050efe	-0.032485
159	0xbbe96e07	-0.007123712
160	0xbdb51b61	-0.08843113
161	0xbeb485f0	-0.35258436
162	0xbebdd289	-0.37074688
163	0xbdbc0c11	-0.09181989
164	0x3b901a59	0.004397672
165	0xbed68127	-0.4189541
166	0xbe25552a	-0.16145769
167	0x3e1b1023	0.15142874
168	0xbde3ac80	-0.11116886
169	0xbdbc1226	-0.09183149
170	0xbe87ea92	-0.2654615
171	0x3c9a32a5	0.018822977
172	0x3d90ac4e	0.070641145
173	0xbcd5a7f0	-0.026081055
174	0xbd8370d6	-0.06418006
175	0x3cadd4d6	0.021219652
176	0xbea21a18	-0.31660533
177	0x3e835b19	0.2565544
178	0x3dc00fd2	0.093780175
179	0xbf1d6898	-0.6148772
180	0xbddc6e4c	-0.10763225
181	0x3e99e0b6	0.30054253
182	0x3eb37566	0.35050505
183	0xbda944d1	-0.08265079
184	0x3d505233	0.05085964
185	0xbce4feeb	-0.027953586
186	0xbbca25f1	-0.0061690737
187	0xbd069f48	-0.032866746
188	0x3c830aad	0.015996302
189	0x3dc86241	0.097843654
190	0x3e3701d0	0.17871785
191	0xbe151abd	-0.14560981
192	0x3e22ec30	0.15910411
193	0xbf1c8080	-0.61133575
194	0xc01f497b	-2.48886
195	0xbc5664ba	-0.0130855385
196	0x3c816a5b	0.015797785
197	0xbdfedbc6	-0.12444262
198	0xbd297185	-0.041368026
199	0x3d93d774	0.07218829
200	0x3d900ccc	0.07033691
201	0xbd5edbf8	-0.054408997
202	0xbdce53a4	-0.10074547
203	0x3db3a787	0.08772188
204	0x3de23b5d	0.11046479
205	0x3e2fb697	0.17159496
206	0x3e3f72ff	0.18696211
207	0xbd78566e	-0.0606293
208	0x3c9acda4	0.018896885
209	0x3ddb28ea	0.10701163
210	0xbd4fa2ea	-0.050692476
211	0x3da1e8bc	0.07905719
212	0xbc8bf81f	-0.017086087
213	0x3e38bcc3	0.18040757
214	0x3dbf2639	0.09333462
215	0xbcf8097f	-0.030277966
216	0x3d841e63	0.06451108
217	0xbcdd8111	-0.027039083
218	0x3d945f02	0.07244684
219	0x3e5de47c	0.21669191
220	0x3d4ec88a	0.050484218
221	0xbc6e8487	-0.014557964
222	0x3ea836c3	0.3285428
223	0xbe3111fb	-0.17292015
224	0xbed1c813	-0.40972957
225	0xbf25e65a	-0.64804614
226	0xbf0824f3	-0.5318138
227	0xba7a89e1	-0.0009557289
228	0xbee3e2d9	-0.4450901
229	0x3e4f23d3	0.2022851
230	0xbe39d5ca	-0.1814796
231	0xbce61511	-0.028086217
232	0xbcf86bb4	-0.030324794
233	0xbe747b18	-0.23875082
234	0x3de2c996	0.11073606
235	0x3ea42696	0.3206069
236	0x3e3d198c	0.18466777
237	0x3d41089d	0.047127355
238	0xbe41d842	-0.18930152
239	0xbc79fbb6	-0.0152577665
240	0xbe025a8c	-0.12729853
241	0xbde2534e	-0.11051045
242	0x3d95502d	0.07290683
243	0x3e8185f3	0.25297508
244	0xbe06e726	-0.13174114
245	0xbe12a5f9	-0.14321126
246	0xbe2af2b4	-0.16694146
247	0xbea87588	-0.3290217
248	0xbe0ab192	-0.135443
249	0x3e2a6571	0.1664026
250	0xbee3d34f	-0.44497153
251	0xbe645eaf	-0.22301744
252	0xbe89c772	-0.26909977
253	0x3edc87c5	0.43072334
254	0xbd942d6d	-0.07235227
255	0xbe933f59	-0.28759268

fc1.bias f4 [64]
0	0x3df5ec2f	0.12007939
1	0xbcc01419	-0.023447083
2	0x3c44a5a8	0.012002386
3	0x3bef23cf	0.00729797
4	0x3c5723d0	0.013131097
5	0x3b1979ce	0.0023418549
6	0xbe15c58c	-0.1462614
7	0x3db36b9b	0.087607585
8	0xbd0a5463	-0.033771884
9	0xbeabeb38	-0.33577895
10	0x3d9f8582	0.077891365
11	0x3dac0ebd	0.084012486
12	0x3d1d75a1	0.038442258
13	0x3de0cd25	0.10976628
14	0xbe0b8814	-0.13626128
15	0xbdb3b92f	-0.08775555
16	0x3d33cb99	0.043895338
17	0xbca6bd00	-0.020353794
18	0xbdd7c688	-0.10535914
19	0xbe7adc61	-0.2449813
20	0xbde9ab39	-0.11409611
21	0x3d3da6a4	0.0463015
22	0xbd8d2e8a	-0.06893642
23	0xbd9e9b9a	-0.077445224
24	0xbd861bce	-0.06548272
25	0x3ceff377	0.029290898
26	0xbd547b7e	-0.051875584
27	0xbe55b6c3	-0.208705
28	0x3e9df039	0.30847338
29	0x3dc0de95	0.09417454
30	0xbe8ade69	-0.2712281
31	0xbe275cea	-0.16344038
32	0x3d4b7636	0.04967328
33	0xbd47c949	-0.048775945
34	0xbe35bee9	-0.17748608
35	0xbaa58fee	-0.0012631395
36	0xbdb0a268	-0.086247265
37	0xbdd58310	-0.10425389
38	0xbcf3224b	-0.029679438
39	0xbe4be8c8	-0.19913018
40	0xbd9997af	-0.074996345
41	0xbddb36b1	-0.10703791
42	0xbd5dd9b5	-0.0541627
43	0x3d1d42d4	0.03839381
44	0xbbe9193f	-0.0071136053
45	0xbe397a48	-0.18113053
46	0xbdd599dc	-0.10429737
47	0xbddb5cee	-0.10711084
48	0xbe52a001	-0.20568849
49	0x3e8b1c25	0.2716991
50	0xbe96f921	-0.29486945
51	0x3e16f2fd	0.1474113
52	0x3cef374a	0.029201169
53	0xbe63c227	-0.22242032
54	0xbda9033f	-0.08252572
55	0xbe0aa1ee	-0.13538334
56	0x3e2582be	0.16163155
57	0xbdbf8668	-0.09351808
58	0xbd37cc53	-0.044872593
59	0xbe14218f	-0.14465927
60	0xbdd07d33	-0.1018013
61	0x3ce77167	0.028252317
62	0x3df96875	0.12178127
63	0xbc58070f	-0.013185277

fc2.weight f4 [64, 64]
0	0xbe698874	-0.22805959
1	0xbde49095	-0.11160389
2	0x3cd87270	0.026421756
3	0xbde3211a	-0.11090298
4	0x3dc328d6	0.09529273
5	0xbd928438	-0.07154125
6	0x3e3f443b	0.18678372
7	0x3bbae3ca	0.005703424
8	0x3d62719c	0.055284128
9	0x3d833365	0.06406287
10	0xbda038ee	-0.078233585
11	0x3d1f93b7	0.03895923
12	0x3da5dadb	0.08098384
13	0x3dc8cc1c	0.09804556
14	0xbd9ea72e	-0.07746731
15	0x3d79bb11	0.060969416
16	0xbe81333d	-0.25234404
17	0xbe167ad7	-0.14695297
18	0xbb0fe82c	-0.0021958454
19	0x3e9e37bd	0.309019
20	0xbc31d433	-0.010853815
21	0x3efd504a	0.49475318
22	0xbdd9d9b6	-0.10637228
23	0x3e9d5952	0.30732208
24	0x3e576431	0.21034314
25	0xbd8607f2	-0.06544484
26	0x3ec220f6	0.37915772
27	0xbebc115c	-0.36731994
28	0x3d263816	0.04058083
29	0xbe62c6ba	-0.2214612
30	0x3e56053a	0.20900431
31	0xbde50b7f	-0.11183833
32	0xbe54bf3e	-0.20776078
33	0x3d9dafd2	0.07699551
34	0xbd009edf	-0.03140151
35	0xbdbd8895	-0.092545666
36	0xbd84cbdf	-0.06484198
37	0x3e9d9dad	0.3078436
38	0xbe13dbcc	-0.14439315
39	0xbccbdfb5	-0.024886945
40	0xbe789920	-0.24277163
41	0xbdc31ee3	-0.095273755
42	0x3e96ea18	0.29475474
43	0xbe7ce3ef	-0.24696325
44	0xbece3784	-0.4027673
45	0xbef70ee8	-0.4825356
46	0x3d004bfd	0.031322468
47	0x3ed6a4cd	0.41922608
48	0xbd1c995f	-0.038232204
49	0xbd3cd48d	-0.04610114
50	0xbdb5f293	-0.08884158
51	0x3cd9f9d4	0.026608385
52	0x3e60bdae	0.21947357
53	0x3c466afa	0.012110466
54	0x3db0d418	0.08634204
55	0x3d8cfaad	0.0688375
56	0xbc2fad07	-0.010722405
57	0x3ea68aaf	0.32527682
58	0xbe2eb63f	-0.17061709
59	0x3c1b165e	0.009465782
60	0xbc5432eb	-0.012951593
61	0x3e93b9d7	0.28852722
62	0x3e6f252c	0.23354024
63	0x3dc9fb05	0.09862331
64	0x3ed091f1	0.40736344
65	0x3e98031d	0.29689875
66	0x3d90487f	0.070450775
67	0x3ced9447	0.029001368
68	0xbe246307	-0.16053401
69	0xbe0e5a01	-0.13901521
70	0x3e9ea6b4	0.3098656
71	0x3e8e7f03	0.27831277
72	0xbe626cb5	-0.22111781
73	0xbb0b7599	-0.002127981
74	0x3e8f690c	0.28009832
75	0xbdbb8a66	-0.09157257
76	0x3d255752	0.04036648
77	0xbe0dfc43	-0.13865761
78	0x3d2f1ce0	0.042752147
79	0x3e97b5cd	0.2963089
80	0xbda6340f	-0.08115398
81	0xbc4dae22	-0.0125537235
82	0x3c18fb1d	0.009337214
83	0xbe8ebacd	-0.27876893
84	0xbba2f783	-0.0049733534
85	0xbe96cf8d	-0.29455224
86	0xbd84d69f	-0.06486248
87	0x3e1f60f0	0.15564322
88	0x3e153dba	0.14574328
89	0x3dd99f84	0.10626128
90	0x3c9012f6	0.017587166
91	0x3c546d4d	0.012965512
92	0x3d71854f	0.058965024
93	0x3e5f9775	0.2183512
94	0xbe4345ea	-0.19069639
95	0xbcd8465a	-0.026400734
96	0xbe54f51d	-0.20796628
97	0xbcf66705	-0.03007842
98	0x3d9c72f4	0.07639113
99	0xbe2162d7	-0.1576036
100	0x3dade392	0.08490671
101	0x3dd537d3	0.10411038
102	0x3eb9e8fc	0.36310565
103	0x3c24e7e2	0.010065051
104	0x3e93f2a4	0.28896058
105	0x3e1902f6	0.14942536
106	0xbe84bfdd	-0.2592763
107	0xbe3f502a	-0.18682924
108	0xbd912df7	-0.07088845
109	0x3db9d291	0.090733655
110	0xbe2f872a	-0.17141405
111	0xbe4b3b40	-0.19846821
112	0xbd8c707a	-0.06857391
113	0xbd52f16e	-0.051499777
114	0xbc4c7d13	-0.012480992
115	0xbe336cda	-0.17521992
116	0x3e5c8429	0.2153479
117	0x3d5d7967	0.054070856
118	0x3d964c20	0.073387384
119	0xbd524335	-0.051333625
120	0xbec05812	-0.37567192
121	0xbd7de41a	-0.061985113
122	0xbe4e2ccf	-0.2013428
123	0x3bab85eb	0.00523447
124	0x3c992b13	0.018697297
125	0xbed516fb	-0.41619095
126	0x3d047816	0.032341085
127	0xbba9619a	-0.0051691057
128	0xbe0948bf	-0.13406657
129	0xbe4d3885	-0.20041092
130	0x3dbd2fa6	0.09237604
131	0xbe5c1097	-0.21490704
132	0xbe9d399a	-0.3070801
133	0x3d89f92d	0.0673698
134	0xbe47cf6a	-0.19512716
135	0xbd6719b4	-0.056420997
136	0x3dfe11fb	0.12405773
137	0xbe34605e	-0.17614886
138	0xbce1f917	-0.027584596
139	0xbcf0f6af	-0.029414503
140	0xbe2c7a0f	-0.16843437
141	0x3de724fa	0.112863496
142	0x3e1e5f0a	0.15465942
143	0xbcdc724e	-0.026909973
144	0xbdc2fb92	-0.095206395
145	0xbcbe744a	-0.02324881
146	0x3daf0937	0.085466795
147	0xbe294353	-0.16529588
148	0x3da65509	0.08121688
149	0xbdc82936	-0.09773485
150	0xbd9cccb8	-0.076562345
151	0x3e82799f	0.25483415
152	0x3e6aaca1	0.22917415
153	0x3dfe15ab	0.124064766
154	0xbd36e885	-0.04465534
155	0x3999d0a9	0.00029337898
156	0xbd311a25	-0.043237824
157	0xbd37535e	-0.04475724
158	0xbcb68cc7	-0.022283925
159	0x3e8aab8e	0.2708401
160	0xbe21a080	-0.15783882
161	0x3e0bb485	0.13643081
162	0x3d80875a	0.06275816
163	0xbd8da8c1	-0.06916953
164	0x3dacf4ac	0.08445105
165	0xbe066d77	-0.13127695
166	0xbdc62a28	-0.096760094
167	0x3d146fc7	0.03623941
168	0x3dc5738c	0.096411794
169	0xbedf667b	-0.43632874
170	0x3df50b99	0.11965103
171	0xbe6bef89	-0.23040594
172	0xbdf16a5d	-0.11787865
173	0xbd9097de	-0.07060216
174	0x3e1a0b92	0.15043476
175	0x3e27035d	0.16309877
176	0x3c24af83	0.010051611
177	0xbe0b11dd	-0.13581033
178	0xbead2a2d	-0.3382124
179	0x3d98e4de	0.07465528
180	0xbef1aa1b	-0.47200093
181	0x3dcf308e	0.10116683
182	0xbd63b246	-0.055589937
183	0xbe9e483b	-0.30914482
184	0x3cddea2e	0.027089205
185	0xbe09bc0c	-0.1345064
186	0x3e2c92c7	0.16852866
187	0xbe7a28d9	-0.24429645
188	0xbe0dc1c8	-0.13843453
189	0xbd3c61ee	-0.04599183
190	0xbe005ff3	-0.12536602
191	0xbdbe9aef	-0.09306895
192	0xbef3a837	-0.47589275
193	0xbe9e11cb	-0.3087295
194	0x3e80a244	0.251238
195	0xbecef85c	-0.40423858
196	0xbeb2997f	-0.34882733
197	0x3ef6d98b	0.48212847
198	0xbd9ce40e	-0.076606855
199	0xbf4b28fc	-0.7935941
200	0xbe12c781	-0.14333917
201	0xbdd48dcd	-0.10378609
202	0xbd77236b	-0.06033651
203	0xbe68e7c9	-0.22744669
204	0xbd9e3cf0	-0.07726467
205	0xbc206dd5	-0.009791811
206	0x3da36cc7	0.07979732
207	0xbd9b3a42	-0.07579471
208	0xbefc3e26	-0.49266165
209	0xbeb88818	-0.3604133
210	0x3d5b2ce7	0.05350962
211	0xbe11a5be	-0.14223382
212	0xbe07cc23	-0.13261466
213	0x3e1c230a	0.15247741
214	0xbe3832a4	-0.17988068
215	0x3e00075e	0.1250281
216	0x3e914a58	0.28377032
217	0xbf00f94c	-0.50380397
218	0x3d970b54	0.073752075
219	0xbeccafd1	-0.39977887
220	0x3e3e442a	0.1858069
221	0xbeeb7b5f	-0.45992562
222	0xbcfb3d57	-0.030668898
223	0xbe1cc7e4	-0.15310627
224	0xbd5805bb	-0.05273984
225	0x3d331687	0.043722656
226	0x3d5793f2	0.052631326
227	0x3e4d23e7	0.20033227
228	0xbf5f4273	-0.8721077
229	0xbe4d3b24	-0.20042092
230	0xbd7afd69	-0.061276827
231	0xbe63d7cc	-0.22250289
232	0xbcf5510b	-0.02994587
233	0x3e1873d5	0.14887936
234	0xbd52dcb8	-0.051480025
235	0xbe8a87aa	-0.27056628
236	0xbe9a61b0	-0.30152655
237	0x3d807497	0.06272238
238	0x3d7a8181	0.06115866
239	0x3edbae70	0.42906523
240	0xbe986216	-0.29762334
241	0xbe2bd869	-0.16781773
242	0xbf09bb99	-0.53801876
243	0xbf2e21de	-0.6802043
244	0x3e381907	0.17978297
245	0x3de9cddc	0.11416218
246	0xbeb1e4ac	-0.34744775
247	0xbe433041	-0.19061376
248	0x3ee14fc6	0.44006175
249	0x3e003359	0.12519588
250	0xbf546e7e	-0.829811
251	0xbe9ee7ac	-0.31036127
252	0xbef14bb0	-0.47128057
253	0x3e2f8b4f	0.17142986
254	0x3e23d2ca	0.15998378
255	0xbe9b2722	-0.30303293

fc2.bias f4 [64]
0	0x3c52ad8c	0.01285876
1	0x3dedc402	0.11609651
2	0x3e9ece82	0.31016928
3	0xbcfdb95f	-0.03097218
4	0x3f38df74	0.7221596
5	0xbdfcb17e	-0.123385414
6	0x3dcc1fe3	0.099670194
7	0xbe8d88cd	-0.27643433
8	0x3e2eda6a	0.17075506
9	0x3d532089	0.0515447
10	0xbe9cd865	-0.30633846
11	0x3ec1b371	0.37832215
12	0x3f22a193	0.6352779
13	0xbe7045bf	-0.23464106
14	0xbe0a5757	-0.1350988
15	0x3f204474	0.6260445
16	0xbe4a9bb2	-0.19785956
17	0x3da3b087	0.07992654
18	0xbe3fb0d6	-0.18719801
19	0x3f240627	0.6407189
20	0x3dca2863	0.098709844
21	0x3e22d2d9	0.15900744
22	0xbd42f293	-0.047594618
23	0x3aea6699	0.001788336
24	0xbe5dc0a4	-0.21655518
25	0xbe45137d	-0.19245715
26	0xbe561188	-0.20905125
27	0xbe4cd792	-0.20004109
28	0xbe52221b	-0.20520823
29	0x3ed62720	0.41826725
30	0x3ded5852	0.115891114
31	0xbd6528ec	-0.05594723
32	0x3f14892c	0.5802181
33	0x3dc40501	0.09571267
34	0x3f22c93b	0.63588303
35	0xbd8d30a6	-0.068940446
36	0x3d5edaef	0.05440801
37	0xbde6c8b3	-0.11268749
38	0x3e8a6d50	0.27036524
39	0xbe262824	-0.1622625
40	0xbde0f969	-0.10985071
41	0xbd96c9b9	-0.07362694
42	0xbdd31061	-0.103058584
43	0x3e5233c1	0.20527555
44	0xbc9bafae	-0.019004669
45	0xbddd9c4b	-0.10820826
46	0x3cc4e486	0.02403475
47	0xbb0584b6	-0.0020373291
48	0xbe786fe9	-0.2426144
49	0x3d0f6105	0.035004634
50	0xbdb7ddb7	-0.089778356
51	0xbdd11171	-0.10208405
52	0xbe84b553	-0.2591959
53	0xbec1d821	-0.37860206
54	0x3e9c107d	0.3048133
55	0xbe3b0fc1	-0.18267728
56	0xbe829a0b	-0.2550815
57	0x3e71de35	0.23619922
58	0xbdedf768	-0.116194546
59	0x3e79e5de	0.24404094
60	0x3f44d25e	0.76883495
61	0xbd0b5e2e	-0.034025364
62	0xbcef7f67	-0.029235555
63	0xbe0fc5e4	-0.14040333

fc3.weight f4 [4, 64]
0	0xbd73f4a8	-0.059559494
1	0x3dae63e8	0.08515149
2	0x3d317e0c	0.0433331
3	0xbda6c208	-0.08142477
4	0x3dbfefc0	0.093719006
5	0xbd82bfea	-0.06384261
6	0x3df314e0	0.11869216
7	0xbdcc5250	-0.09976637
8	0x3d84b138	0.06479114
9	0xbbe8db00	-0.007106185
10	0xbddd966e	-0.10819708
11	0x3d847604	0.06467822
12	0xbd3be8c8	-0.045876294
13	0x3b0e8ec0	0.0021752566
14	0xbd1c5030	-0.03816241
15	0xbce4e7b0	-0.027942508
16	0xbd0309f0	-0.0319919
17	0x3d65db24	0.056117192
18	0xbc256930	-0.010095879
19	0x3daee8fe	0.085405335
20	0x3d4ed168	0.050492674
21	0xba419500	-0.00073845685
22	0x3d4d43f4	0.050113633
23	0xbd2c3be0	-0.04204929
24	0xbdc545b6	-0.09632437
25	0xbda8a030	-0.08233678
26	0xbdaf4e3c	-0.08559844
27	0xbdcea828	-0.10090667
28	0x3ca3d7b0	0.020000309
29	0xbc3639a0	-0.011122137
30	0xbde6314a	-0.1123987
31	0x3d84d5e0	0.06486106
32	0x3d9ea374	0.0774602
33	0x3dd97774	0.10618487
34	0x3ba7f620	0.005125776
35	0xbc15f0b0	-0.009151623
36	0x3d969226	0.07352094
37	0xbdde01ba	-0.10840173
38	0x3bfd3480	0.0077272058
39	0x3da784f8	0.08179659
40	0x3db12a94	0.08650699
41	0x3c715310	0.014729276
42	0xbc29d6e0	-0.010366172
43	0x3d36f410	0.04466635
44	0x3cd9aec0	0.026572585
45	0xbb898620	-0.004196897
46	0x3dcac662	0.0990112
47	0x3dda87bc	0.106704205
48	0xbd916de6	-0.071010396
49	0x3de66366	0.112494275
50	0xbd05a9c0	-0.03263259
51	0x3cdc4db8	0.026892528
52	0x3de400d0	0.111329675
53	0xbd71f04c	-0.059067056
54	0x3d6efb2c	0.058345005
55	0xbc8b9e18	-0.017043158
56	0xbd90dd3c	-0.07073447
57	0xbbf95de0	-0.0076100677
58	0x3ddad58c	0.10685262
59	0x3d8edc30	0.06975591
60	0xbd846346	-0.064642474
61	0x3de7b9ba	0.113147214
62	0x3cd05210	0.025429755
63	0x3dda8196	0.10669248
64	0x3df37ff4	0.118896395
65	0xbd150f48	-0.036391526
66	0x3dcc6150	0.099794984
67	0xbc97c978	-0.018528685
68	0x3ca1a538	0.019732103
69	0x3b853fe0	0.0040664524
70	0x3ae18480	0.0017205626
71	0xbc1ee950	-0.009699181
72	0xbdeaa5cc	-0.114574045
73	0x3c323140	0.010876
74	0x3deae772	0.11469926
75	0x3d27ef10	0.040999472
76	0xbdec8b2c	-0.115499824
77	0x3cbf2a10	0.023335487
78	0xbca5de60	-0.020247638
79	0x3d16ec9c	0.036846742
80	0xbdeb195a	-0.11479445
81	0x3cab2df8	0.020895943
82	0xbdb6f518	-0.08933467
83	0x3c91b438	0.01778613
84	0x3d9a143e	0.07523392
85	0x3db338c0	0.087510586
86	0xbca939e0	-0.02065748
87	0x3de367e8	0.11103803
88	0xbbf0eca0	-0.0073524266
89	0xbd9356d0	-0.071942925
90	0x3d6f4fa8	0.058425575
91	0x3bb166e0	0.005413875
92	0xbdc9faf0	-0.09862316
93	0x3da2c458	0.07947606
94	0x3df6b66a	0.120465115
95	0x3d8c2db4	0.06844655
96	0xbca30ed0	-0.019904524
97	0xbdd6c6ca	-0.10487135
98	0x3ddb51c4	0.10708955
99	0xbd8857aa	-0.066573456
100	0x3c9a3e60	0.01882857
101	0xbde7a222	-0.11310221
102	0x3d9dec10	0.07711041
103	0x3ccd9540	0.025095582
104	0x3df3b4f0	0.118997455
105	0x3d7877b4	0.060661033
106	0xbdf47dc0	-0.119380474
107	0x3dca4b80	0.09877682
108	0xbdcee022	-0.10101344
109	0xbd74b4bc	-0.059742674
110	0x3d842d98	0.06454009
111	0xbd8b53e0	-0.06803107
112	0x3d0641d4	0.032777622
113	0x3c52ef80	0.012874484
114	0x3c1114b0	0.00885503
115	0xbd8b0b62	-0.067892805
116	0x3db329b8	0.087481916
117	0x3c933198	0.017967984
118	0x3d3e1700	0.046408653
119	0x3c6e76e0	0.014554709
120	0xbd7eb490	-0.062183917
121	0xbd407170	-0.046983182
122	0x3daa6878	0.08320707
123	0xbddfa3dc	-0.109199256
124	0xbd30f4bc	-0.043202147
125	0xbdea56ce	-0.11442338
126	0xbd990bb0	-0.07472932
127	0x3c899cc8	0.016798392
128	0xbce947e0	-0.028476655
129	0x3d2a9e28	0.041654736
130	0x3dc310c2	0.09524681
131	0x3cd762b0	0.026292175
132	0x3df321c2	0.11871673
133	0xb9ad2400	-0.00033023953
134	0x3df6f9a4	0.12059334
135	0x3ca53518	0.020166919
136	0xbb524400	-0.0032083988
137	0x3d0f1950	0.03493625
138	0xbdc9d8f6	-0.09855835
139	0x3dd0c274	0.10193339
140	0x3dea3cc6	0.11437373
141	0xbde124a2	-0.10993315
142	0xbd985c66	-0.074394986
143	0x3dca53d0	0.09879267
144	0x3d00b19c	0.03141938
145	0xbd391988	-0.045190364
146	0xbd7f19d4	-0.06228049
147	0xbcea9fc0	-0.028640628
148	0xbcc0bc38	-0.02352725
149	0x3dec2834	0.11531106
150	0xbd9ba730	-0.07600248
151	0x3c9002f8	0.01757954
152	0x3d111f68	0.035430342
153	0xbd7df738	-0.062003344
154	0xbbff6360	-0.007793829
155	0xbcb91f68	-0.022597983
156	0x3dc3536e	0.09537397
157	0x3db729f8	0.08943552
158	0xbbc59c20	-0.0060305744
159	0xbd833074	-0.06405726
160	0xbd92f89a	-0.07176323
161	0xbd59fb6c	-0.05321829
162	0x3dde1516	0.108438656
163	0x3dd01a9e	0.10161327
164	0x3ccb9d60	0.024855316
165	0xbdee8596	-0.11646573
166	0x3d238210	0.03991896
167	0xbcbe50e8	-0.023231938
168	0x3d8f21e4	0.06988886
169	0x3d850f22	0.06497027
170	0x3dd6c3d8	0.10486573
171	0x3c152190	0.00910224
172	0x3c1cbb60	0.009566158
173	0x3a6d7a00	0.0009059012
174	0x3db0dc98	0.08635825
175	0x3dc14e00	0.094387054
176	0x3d713d80	0.05889654
177	0xbcccc1d0	-0.02499476
178	0xbd14a474	-0.036289647
179	0x3ded3b52	0.1158358
180	0xbd846d30	-0.06466138
181	0x3cb02298	0.02150087
182	0x3d20f9ec	0.039300844
183	0x3d8490c6	0.06472926
184	0xbd9b4546	-0.07581572
185	0xbcc5b0b0	-0.024132103
186	0xbb6f4a40	-0.0036512762
187	0xbc3ace70	-0.011401758
188	0xbddbb658	-0.10728139
189	0x3d5cedec	0.053937837
190	0xbdc3bca8	-0.09557468
191	0xbd014ae0	-0.031565547
192	0x3d1cf098	0.038315386
193	0x3dc94bac	0.098288864
194	0xbcb218c8	-0.021740332
195	0xbd8dbd9c	-0.06920931
196	0xbd64502c	-0.05574052
197	0xba96b880	-0.0011499077
198	0xbd8bf402	-0.0683365
199	0x3cfcfc20	0.030881941
200	0x3d677b2c	0.05651395
201	0x3df19a34	0.1179699
202	0x3dd74896	0.105118915
203	0xbcd14730	-0.02554664
204	0x3d599f30	0.05313033
205	0x3c8658e0	0.0163998
206	0x3d72be00	0.05926323
207	0xbd68baec	-0.056818888
208	0x3df07072	0.11740197
209	0x3a59e600	0.0008312166
210	0x3da2241a	0.07917042
211	0x3dbdde2c	0.092708915
212	0xbcd8e828	-0.026477888
213	0x3dc429f6	0.09578316
214	0xbd0480a0	-0.03234923
215	0x3d7eb4f4	0.06218429
216	0xbc9eed30	-0.01940021
217	0xbdca7384	-0.09885314
218	0xbd0285ec	-0.031866
219	0x3d426d48	0.0474675
220	0x3dcc7e58	0.09985036
221	0xbdd0e524	-0.10199955
222	0xbd948e48	-0.072537005
223	0x3d856c86	0.0651484
224	0xbd82c7d2	-0.06385769
225	0x3bd57120	0.0065137297
226	0xbdb2949a	-0.0871975
227	0x3c016050	0.007896498
228	0xbd77bc98	-0.06048259
229	0x3ce4b108	0.027916446
230	0x3d49e204	0.04928781
231	0x3cc461f8	0.023972496
232	0xbdc95440	-0.098305225
233	0x3dbff0a8	0.093720734
234	0x3dd77bf2	0.105216876
235	0xbde58a86	-0.11208062
236	0x3dd1abde	0.10237859
237	0xbddca54a	-0.10773714
238	0x3d70aba8	0.058757454
239	0xbbf1e680	-0.007382214
240	0xbc23ae10	-0.00999023
241	0xbd794c4c	-0.060863778
242	0x3dc99bb6	0.09844153
243	0x3ca57dd0	0.020201594
244	0xbc0e67d0	-0.008691743
245	0xbb90e1a0	-0.004421428
246	0x3db98ca8	0.09060031
247	0x3dfdab14	0.12386146
248	0xbd91d69a	-0.0712101
249	0xbde30f6e	-0.11086927
250	0xbdad3076	-0.08456509
251	0xbd8afee6	-0.06786899
252	0xbdd12588	-0.10212237
253	0xbd38c660	-0.04511106
254	0xbd4612bc	-0.04835771
255	0xba6a4600	-0.00089368224

fc3.bias f4 [4]
0	0x3d1204b4	0.035649016
1	0x3da47132	0.08029403
2	0xbda8e8fa	-0.08247562
3	0xbdb76c80	-0.089562416

fc3_adv.weight f4 [4, 64]
0	0xbdb8e1fe	-0.090274796
1	0xbdd37f02	-0.10326959
2	0x3d1d9b43	0.038478147
3	0xbf5ae479	-0.8550487
4	0x3d9ffa45	0.07811407
5	0x3ebd3104	0.36951458
6	0xbd968377	-0.07349294
7	0x3d9400a0	0.07226682
8	0x3db6f103	0.08932688
9	0x3dd385d0	0.10328257
10	0xbdf61dca	-0.120174006
11	0x3ce3c26d	0.02780267
12	0xbd405ab4	-0.0469615
13	0xbea8bf9a	-0.3295868
14	0x3dc8435b	0.09778472
15	0xbd56d46c	-0.052448675
16	0xbe8371b0	-0.25672674
17	0x3d214000	0.039367676
18	0x3e22a666	0.15883788
19	0x3d1c3670	0.038137853
20	0x3e0ff3d5	0.14057858
21	0x3e01a238	0.12659538
22	0x3eaa40cb	0.33252558
23	0x3cd814d5	0.026377121
24	0x3e6691bf	0.22516535
25	0x3edd993c	0.4328097
26	0xbd7d4ae0	-0.061838984
27	0xbe3f29b1	-0.18668248
28	0x3f111c2b	0.56683606
29	0xbd89a3a5	-0.06720666
30	0x3df4989f	0.11943173
31	0x3d2600e4	0.040528193
32	0x3d02a98f	0.031899985
33	0x3c0872a2	0.008328112
34	0x3db3926f	0.08768164
35	0x3ca1d087	0.019752754
36	0x3df71081	0.12063695
37	0x3f08e2d9	0.5347114
38	0x3d9619ad	0.07329116
39	0xbee8217c	-0.45338047
40	0xbd7a2f8d	-0.061080504
41	0xbe9d871e	-0.3076715
42	0x3e5ff66b	0.21871345
43	0x3d2d30db	0.04228292
44	0x3e5af883	0.21383862
45	0x3da3d528	0.07999641
46	0x3ef379f0	0.47553968
47	0x3dae8e02	0.085231796
48	0xbb08f519	-0.0020898043
49	0x3c416e68	0.011806108
50	0x3eeb09bd	0.45905867
51	0xbcd17230	-0.025567144
52	0xbe43e010	-0.19128442
53	0xbdad38f0	-0.084581256
54	0x3ca07168	0.019585326
55	0x3d2c8f66	0.042128943
56	0x3ddd019a	0.10791321
57	0xbe42178c	-0.18954295
58	0x3ef717c6	0.48260325
59	0x3d8eef50	0.06979239
60	0xbc1db8ec	-0.009626608
61	0xbd108067	-0.035278704
62	0xbe94b90e	-0.29047436
63	0x3d775782	0.06038619
64	0xbd9ce6dd	-0.07661221
65	0xbd7a14bb	-0.061054926
66	0xbce702bd	-0.028199548
67	0x3ef25e03	0.4733735
68	0x3dbf77e9	0.09349043
69	0x3eee19d6	0.46504086
70	0xbce60213	-0.028077161
71	0x3ccee2d1	0.025254639
72	0x3d94262a	0.07233842
73	0x3e179c3d	0.14805694
74	0x3e3c7a0a	0.18405929
75	0x3b7e2bae	0.003878336
76	0x3d862824	0.06550625
77	0xbe9227b8	-0.28545928
78	0xbdb45282	-0.088047996
79	0x3dbc5e81	0.09197713
80	0x3ed2313b	0.41053185
81	0x3e048ccb	0.12944333
82	0x3db268fe	0.08711432
83	0xbcb79745	-0.022410998
84	0x3d9013af	0.07035004
85	0x3e09b2e4	0.13447148
86	0x3e329097	0.17437969
87	0x3dee623f	0.11639833
88	0x3e804700	0.2505417
89	0x3eada62d	0.33915845
90	0xbe42030a	-0.18946472
91	0xbda4457c	-0.080210656
92	0x3e71b279	0.23603238
93	0xbdb0f512	-0.086404935
94	0x3cc3ea2a	0.023915369
95	0x3dad9d6a	0.0847729
96	0x3cb1d846	0.021709573
97	0x3d4ed874	0.050499395
98	0x3d06d2f6	0.03291603
99	0x3dee6d38	0.116419256
100	0x3d7605aa	0.060063995
101	0x3e101665	0.14071043
102	0xbbd3e113	-0.00646604
103	0x39c28288	0.00037099817
104	0x3e91f2fa	0.2850569
105	0x3e42dadf	0.19028805
106	0x3e757183	0.23969083
107	0x3dd3f38f	0.103491895
108	0x3da8e86c	0.08247456
109	0x3f219fbd	0.63134366
110	0x3ef48216	0.47755498
111	0x3e30ce19	0.1726612
112	0x3cc4e673	0.024035668
113	0xb9cb02c8	-0.0003872125
114	0x3e7f7583	0.24947171
115	0x3ddf6829	0.10908539
116	0xbd827aa5	-0.06371049
117	0x3e9c9c32	0.30587918
118	0x3e0e2fc3	0.13885407
119	0xbcae237f	-0.02125716
120	0x3e54e37f	0.20789908
121	0x3c4c5e68	0.01247368
122	0x3e9c18ae	0.3048758
123	0x3c18adf2	0.009318816
124	0xbc4b4977	-0.012407652
125	0xbda3c05c	-0.07995674
126	0x3e65e442	0.22450355
127	0x3e0b7068	0.13617098
128	0xbe0fe449	-0.14051928
129	0x3d7efa25	0.062250275
130	0xbd40d75d	-0.047080386
131	0x3e2fa329	0.17152084
132	0xbda0f1f3	-0.07858648
133	0x3ecc1c5d	0.3986539
134	0x3d8fa13f	0.07013177
135	0x3d924f0e	0.07143985
136	0x3dd46a09	0.10371787
137	0x3e03c0e6	0.12866554
138	0x3d8cc45a	0.068733886
139	0x3d950faf	0.07278382
140	0xbcc49393	-0.02399615
141	0x3ef8e686	0.48613375
142	0xbdc4b7c4	-0.09605363
143	0x3da98b65	0.082785405
144	0xbd1d08ee	-0.038338594
145	0x3e458453	0.19288759
146	0xbd873a9a	-0.06602974
147	0x3d0aef7b	0.033919793
148	0xbe3a9bf7	-0.18223558
149	0xbda9b8f1	-0.08287228
150	0xbe87f817	-0.26556465
151	0xbe8f066f	-0.27934596
152	0x3e8de810	0.27716112
153	0x3da6a09e	0.08136104
154	0x3e7ffeda	0.24999562
155	0x3eafcd41	0.34336284
156	0x3e3a8674	0.18215352
157	0xbca77d87	-0.020445598
158	0x3d73fff8	0.059570283
159	0xbd39e2a9	-0.045382176
160	0xbbce7664	-0.0063007344
161	0xbd94bed9	-0.07262964
162	0x3d6dd42d	0.058063675
163	0x3dacffe8	0.08447248
164	0xbd080c65	-0.033214945
165	0xbf3ee2d0	-0.7456484
166	0xbd2b6fea	-0.041854776
167	0x3e61b4cb	0.22041623
168	0xbe93663d	-0.2878894
169	0x3ddae9ef	0.106891505
170	0x3ef67344	0.48134816
171	0x3cef8ab4	0.029240943
172	0x3ec24ca0	0.37949085
173	0x3f0c13fc	0.54717994
174	0xbe7d96a5	-0.24764498
175	0x3d558b44	0.052134767
176	0xbdca897b	-0.098895036
177	0xbddc5145	-0.107576884
178	0xbeb0c62e	-0.345262
179	0x3edfe507	0.43729421
180	0x3e9286b7	0.28618404
181	0x3e2e2e31	0.17009808
182	0xbe2eb614	-0.17061645
183	0x3e108f89	0.14117254
184	0x3e3abf59	0.18237056
185	0x3ddc81e8	0.10766965
186	0xbdc4b878	-0.09605497
187	0xbdb76335	-0.08954469
188	0x3d83f882	0.064438835
189	0x3dd6cf7d	0.10488794
190	0x3e9e45aa	0.30912524
191	0x3dcbedd7	0.09957474
192	0x3e84a9a0	0.25910664
193	0xbd516892	-0.051125117
194	0x3e1942f1	0.14966942
195	0x3ef6db61	0.48214248
196	0x3d0eb2e3	0.03483857
197	0xbe81b91e	-0.25336546
198	0x3d10b25f	0.035326358
199	0xbe10c6c0	-0.14138317
200	0x3dd34102	0.10315134
201	0xbea379f9	-0.31928995
202	0x3e035b54	0.12827808
203	0x3d8fb387	0.07016664
204	0x3c9386d7	0.018008633
205	0x3ebdb45b	0.37051663
206	0x3d5f097b	0.0544524
207	0x3e130f32	0.14361265
208	0xbd0c5832	-0.034263797
209	0xbe1aecdd	-0.15129419
210	0x3de78fff	0.11306762
211	0x3d8af256	0.06784503
212	0xbda7e7df	-0.08198523
213	0xbdec38ae	-0.11534248
214	0xbec4e184	-0.38453305
215	0x3d75c413	0.060001444
216	0x3dceb192	0.100924626
217	0x3be159c0	0.006877154
218	0xbd43f11b	-0.047837358
219	0x3eb63f70	0.35595274
220	0xbf01548e	-0.50519645
221	0x3b501742	0.0031752144
222	0xbcf47933	-0.029842949
223	0x3ea4e73a	0.32207662
224	0x3d18256e	0.03714507
225	0xbc7f530d	-0.015583766
226	0xbd9ea73f	-0.077467434
227	0xbe695331	-0.22785641
228	0x3d41fd69	0.04736081
229	0xbd33d84a	-0.04390744
230	0x3d12a4fe	0.03580188
231	0x3ecba995	0.39777818
232	0x3ee2210e	0.44165844
233	0x3eeed419	0.46646193
234	0xbe9b21d4	-0.30299246
235	0xbe24a0d5	-0.16076978
236	0xbea8e3f7	-0.32986423
237	0xbda7a144	-0.08185056
238	0xbdc194eb	-0.09452232
239	0x3d2c2e07	0.042036083
240	0x3e632ede	0.22185847
241	0x3df0328c	0.11728391
242	0x3e90906f	0.28235194
243	0xbf11a03a	-0.5688511
244	0xbdf87313	-0.12131324
245	0x3e1bd8a4	0.1521936
246	0xbd05f928	-0.032708317
247	0xbe14cb88	-0.14530766
248	0xbdbfd4dd	-0.09366772
249	0x3dc6e9e1	0.097125776
250	0xbe97da9f	-0.29658982
251	0x3c0fe1c1	0.008781851
252	0xbbd0743a	-0.0063615115
253	0x3e2e223d	0.17005248
254	0x3e6fcbac	0.23417538
255	0x3e1b313e	0.15155503

fc3_adv.bias f4 [4]
0	0x3dda4895	0.10658375
1	0xbe323de3	-0.1740642
2	0xbc6cd19c	-0.014454272
3	0xbd8ffbe6	-0.07030468

fc3_v.weight f4 [1, 64]
0	0x3c7e2d90	0.015513793
1	0x3e337723	0.17525916
2	0x3e0615fc	0.13094324
3	0xbc1189ec	-0.008882981
4	0x3eb1d42f	0.34732196
5	0xbf1ee0ed	-0.6206196
6	0x3e26bc85	0.16282852
7	0xbe95108c	-0.29114187
8	0x3e7bd00a	0.2459108
9	0x3d77cfbe	0.060500853
10	0xbe05adb5	-0.13054545
11	0x3e80cb1f	0.2515497
12	0x3ea08db4	0.3135811
13	0x3e63f7f7	0.2226256
14	0xbd8ffc9e	-0.07030605
15	0x3e9e6f45	0.30944267
16	0xbf38fe8f	-0.72263426
17	0x3ccfa679	0.025347935
18	0xbedb2a09	-0.42805508
19	0x3ea031fc	0.31288135
20	0x3e81106e	0.25207847
21	0x3e71c3f8	0.23609912
22	0xbdea075b	-0.11427184
23	0x3e2e011d	0.16992612
24	0xbe9de26c	-0.3083681
25	0xbf174493	-0.5908901
26	0xbd1d7061	-0.03843725
27	0x3e416222	0.18885091
28	0xbeef7aaa	-0.46773273
29	0x3eac64ca	0.33670646
30	0x3ebe59c8	0.37177873
31	0x3e1d2355	0.1534551
32	0x3e8ef3e4	0.2792045
33	0x3e907f09	0.2822192
34	0x3ea5bf40	0.32372475
35	0x3edfcb27	0.4370968
36	0x3ea16231	0.31520227
37	0x3e6ea3fb	0.23304741
38	0x3e9a0c2e	0.30087417
39	0x3e1363d3	0.14393549
40	0x3d758e81	0.059950355
41	0xbeaa7a89	-0.33296612
42	0xbe9b4272	-0.3032413
43	0x3e181553	0.14851885
44	0xbe3d4da9	-0.18486656
45	0xbf5d49ba	-0.8644062
46	0xbeb06626	-0.34452933
47	0x3df209f2	0.11818303
48	0xbe61579f	-0.22006081
49	0x3dd43c0d	0.10363016
50	0xbf042146	-0.5161327
51	0x3eed4e10	0.4634862
52	0xbe75be24	-0.23998314
53	0xbef5f55f	-0.48038766
54	0x3de2bfcd	0.11071739
55	0x3e0e3bb6	0.13889965
56	0xbf52effb	-0.8239743
57	0x3da004e2	0.07813431
58	0xbeb0e139	-0.3454683
59	0x3e8b2750	0.2717843
60	0x3ecc09a1	0.39851096
61	0x3ebf5df3	0.37376365
62	0xbedf9828	-0.43670774
63	0x3e1ec0b4	0.15503198
